model_half.pt (torch, 482683 bytes, 67 tensors)

b1.conv1.weight f2 [12, 3, 3, 3]
-0.093 -0.0939 0.1501 0.0963 0.03278 0.0701 -0.1255 -0.02263
-0.0977 -0.0866 0.0702 -0.174 0.004665 0.004585 0.04523 0.182
-0.07355 -0.08246 0.205 0.1399 -0.10095 -0.01153 -0.1736 -0.0501
-0.05377 -0.05823 0.09863 0.18 0.1332 -0.1362 -0.0533 0.0691
-0.02095 0.12396 -0.05994 0.1183 -0.06537 -0.0506 0.2119 -0.08466
-0.1411 0.1477 0.04498 0.1416 4.22e-05 -0.1606 -0.12195 -0.0915
-0.1769 -0.0651 0.009796 -0.11127 -0.09973 -0.01361 -0.16 0.151
0.1403 -0.02649 0.163 -0.0962 -0.0867 -0.1315 0.11755 -0.1037
0.058 -0.006298 -0.03607 0.04755 0.03494 0.11774 -0.012085 -0.1492
-0.1704 -0.1642 0.1305 0.05853 0.05222 -0.1724 -0.1656 0.1958
0.2101 -0.00472 0.1909 0.0821 -0.0922 -0.1716 -0.164 0.01622
-0.1649 -0.01324 -0.2084 0.07074 -0.1017 0.03088 0.03668 0.1357
-0.09924 -0.059 -0.04434 -0.2043 0.0369 -0.02672 0.0753 -0.0348
0.1919 -0.104 0.1875 -0.0602 -0.1313 -0.1312 -0.02278 0.1263
-0.1376 -0.05466 -0.00645 -0.03394 0.167 0.06198 -0.02388 0.1829
0.04874 -0.11914 -0.1296 -0.1506 -0.08417 -0.1398 0.02342 -0.0508
-0.00852 0.05606 -0.0735 -0.02184 0.10345 -0.01703 -0.1427 0.1658
0.01897 0.0363 -0.09485 -0.11176 0.0647 0.1329 -0.1787 -0.1718
0.1724 -0.001558 0.0579 -0.001596 -0.043 -0.05997 -0.03223 0.1685
-0.09344 -0.04987 -0.1831 -0.1914 0.1741 0.01359 0.1345 -0.1826
0.1323 -0.03568 -0.1442 0.10333 -0.0447 0.08124 0.09326 0.003868
0.09143 0.0366 0.00723 0.04535 0.1736 -0.0529 -0.0879 0.01851
-0.1157 5.853e-05 -0.1122 -0.06274 -0.02666 -0.1464 -0.0161 -0.1476
-0.1697 0.0747 0.1342 0.0933 0.05072 -0.1047 -0.04282 0.0757
0.006905 -0.1434 0.0906 -0.0561 -0.02856 0.1283 -0.07916 -0.005196
-0.1084 -0.07306 0.08704 0.0979 0.1415 0.02126 0.005108 0.1385
-0.1097 -0.1289 0.00955 0.10205 0.111 -0.0441 -0.04816 0.03964
-0.02116 0.129 0.1107 0.146 -0.11127 0.05063 -0.0625 -0.0876
-0.10815 0.03003 0.0327 -0.07245 0.04056 0.0825 -0.1208 0.0653
-0.1221 0.04715 -0.1126 0.1292 0.1633 -0.1108 0.0963 -0.1746
-0.0894 -0.164 0.1971 0.0444 -0.09485 -0.1653 0.04947 0.04214
0.07635 0.0891 0.0396 0.1805 -0.1324 0.00405 0.001031 -0.1635
00000000: f4ad 02ae ce30 2a2e 3228 7d2c 04b0 cba5
00000010: 41ae 8bad 7e2c 91b1 c71c b21c ca29 d331
00000020: b5ac 47ad 8f32 7a30 76ae e7a1 8eb1 6aaa
00000030: e2aa 74ab 502e c331 4330 5cb0 d3aa 6c2c
00000040: 5da5 ef2f acab 922f 2fac 7aaa c832 6bad
00000050: 84b0 ba30 c229 8830 c402 24b1 ceaf dbad
00000060: a9b1 2bac 0421 1faf 62ae f8a2 1fb1 d530
00000070: 7d30 c8a6 3731 28ae 8cad 35b0 862f a3ae
00000080: 6d2b 739e 9ea8 162a 7928 892f 30a2 c6b0
00000090: 74b1 41b1 2d30 7e2b af2a 84b1 4db1 4432
000000a0: b932 d59c 1c32 412d e7ad 7eb1 3fb1 2724
000000b0: 47b1 c7a2 abb2 872c 82ae e827 b228 5830
000000c0: 5aae 8dab ada9 8ab2 b928 d7a6 d22c 74a8
000000d0: 2432 a8ae 0032 b5ab 34b0 33b0 d5a5 0b30
000000e0: 67b0 ffaa 9b9e 58a8 5831 ef2b 1da6 da31
000000f0: 3d2a a0af 26b0 d2b0 63ad 79b0 ff25 81aa
00000100: 5da0 2d2b b4ac 97a5 9f2e 5ca4 91b0 4e31
00000110: db24 a528 12ae 27af 242c 4130 b8b1 7fb1
00000120: 8431 6296 692b 8a96 81a9 adab 20a8 6431
00000130: fbad 62aa dcb1 20b2 9231 f522 4e30 d8b1
00000140: 3c30 91a8 9db0 9d2e b9a9 332d f82d ec1b
00000150: da2d af28 671f ce29 8e31 c5aa a0ad bd24
00000160: 68af d603 2eaf 04ac d3a6 afb0 1fa4 b9b0
00000170: 6eb1 c82c 4b30 f92d 7e2a b3ae 7ba9 d82c
00000180: 121f 97b0 cc2d 2eab 50a7 1b30 11ad 529d
00000190: f0ae adac 922d 442e 8730 7125 3b1d 6f30
000001a0: 05af 20b0 e420 882e 1b2f a5a9 2aaa 1329
000001b0: 6ba5 2130 162f ac30 1faf 7b2a 00ac 9bad
000001c0: ecae b027 3028 a3ac 3129 482d bbaf 2e2c
000001d0: d0af 092a 35af 2230 3a31 17af 2a2e 96b1
000001e0: b9ad 3fb1 4f32 af29 12ae 4ab1 552a 6529
000001f0: e32c b42d 1229 c731 3db0 261c 3914 3bb1

b1.conv1.bias f2 [12]
-0.02339 0.09296 0.184 0.1436 -0.1708 0.1583 -0.1329 0.035
0.116 -0.006264 0.02489 -0.00951
00000000: fda5 f32d e331 9830 77b1 1131 41b0 7b28
00000010: 6d2f 6a9e 5f26 dea0

b1.bn1.weight f2 [12]
1.001 0.9897 1.053 0.976 0.9814 0.9897 0.9814 0.9775
1.008 0.992 0.9 0.999
00000000: 013c eb3b 363c cf3b da3b eb3b da3b d23b
00000010: 083c f03b 333b fe3b

b1.bn1.bias f2 [12]
0.003279 0.02217 0.1676 -0.02228 -0.0441 -0.003277 0.03275 0.04373
0.04645 0.01275 -0.01714 -0.01055
00000000: b71a ad25 5d31 b4a5 a5a9 b69a 3128 9929
00000010: f229 8722 63a4 67a1

b1.bn1.running_mean f2 [12]
0.01562 -0.013374 0.17 0.2668 -0.05258 0.1809 -0.168 0.04214
0.1073 -0.03937 -0.1495 -0.1278
00000000: ff23 d9a2 7131 4534 bbaa ca31 60b1 6529
00000010: de2e 0aa9 c9b0 17b0

b1.bn1.running_var f2 [12]
0.013336 0.1552 0.010605 0.08496 0.1355 0.01682 0.02435 0.011734
0.01039 0.0463 0.2466 0.1904
00000000: d422 f730 6e21 702d 5630 4e24 3c26 0222
00000010: 5221 ed29 e433 1832

b1.conv2.weight f2 [12, 12, 3, 3]
-0.000918 0.04886 -0.02713 0.04404 -0.08234 -0.10095 0.0378 0.05667
0.009895 -0.00227 0.03018 0.1212 -0.0768 0.03464 -0.03116 -0.0669
-0.0594 -0.07166 0.08856 0.10547 -0.005665 -0.004887 0.066 0.12134
0.0712 -0.04715 -0.008644 -0.02382 0.01372 -0.07367 0.04053 -0.00828
-0.02231 0.06094 0.06714 0.0648 -0.02379 0.04376 0.00569 0.02367
-0.07477 0.04404 -0.0139 -0.01312 -0.063 -0.00207 -0.08 -0.000274
0.05914 0.1233 -0.0768 0.04037 -0.0449 0.01026 0.05728 0.002121
0.0623 -0.0898 0.0328 -0.01938 0.02371 0.00624 -0.00723 0.03766
-0.01823 -0.08923 0.04837 0.02277 -0.0944 0.03973 -0.02715 -0.03018
0.01349 -0.03802 -0.01536 0.05994 0.0883 -0.003937 -0.06696 -0.01683
0.01188 0.009865 -0.01714 0.027 -0.09265 -0.05322 0.05475 0.05637
-0.007763 -0.1082 -0.005787 -0.0575 -0.01944 -0.01828 -0.0594 0.02068
0.03867 -0.04462 0.02357 -0.05054 0.05127 -0.06683 0.04422 -0.01426
-0.0742 0.0869 0.06235 -0.02998 -0.05997 0.0997 0.08484 0.0682
-0.05008 -0.03888 0.12396 0.069 -0.09064 -0.0759 -0.0322 -0.02715
0.0524 -0.08636 -0.08636 -0.08563 -0.00874 0.11127 0.0646 -0.01913
-0.08484 -0.02693 0.0635 -0.03506 -0.01084 -0.09937 -0.0717 0.02838
-0.007935 -0.0936 0.04294 -0.06006 -0.04514 0.02122 -0.0813 0.0545
0.05756 0.01836 -0.00414 0.07 0.096 -0.04062 0.04904 -0.01936
-0.0209 0.0627 -0.004593 0.011345 0.04648 0.0476 -0.02359 0.0406
0.06464 -0.08984 0.08624 0.001049 -0.03552 -0.0601 0.01996 -0.01761
0.0355 0.03586 -0.01249 0.002249 -0.0166 0.0737 0.09015 0.05078
-0.08234 -0.06384 -0.05023 0.003494 0.0549 -0.07587 -0.1135 0.10583
-0.0905 0.02574 0.0504 -0.005363 0.05807 0.013954 0.0661 -0.04892
0.03644 -0.10077 -0.0467 -0.03433 -0.05722 0.01704 0.02287 0.03302
0.02647 -0.03186 -0.0662 -0.0701 0.077 -0.0925 -0.0706 0.0557
-0.0233 -0.0777 0.07074 -0.0872 -0.01402 -0.01651 -0.041 -0.07935
-0.00789 -0.06094 -0.012634 -0.0352 -0.098 -0.07935 0.0689 0.01242
-0.04474 -0.07355 0.02979 -0.00774 -0.01057 -0.003006 -0.002594 0.0723
-0.02483 0.04922 -0.1234 -0.02882 0.00703 -0.0523 -0.03424 -0.04022
0.06384 0.078 -0.03293 -0.02805 0.03995 0.0984 -0.08136 -0.04102
-0.0509 -0.02448 0.0701 0.04388 -0.0761 0.0599 -0.0318 0.03647
00000000: 8593 412a f2a6 a329 45ad 76ae d728 412b
00000010: 1121 a698 ba27 c22f eaac 6f28 faa7 48ac
00000020: 9aab 96ac ab2d c02e cd9d 019d 392c c42f
00000030: 8f2c 09aa 6da0 19a6 0623 b7ac 3029 3da0
00000040: b6a5 cd2b 4c2c 262c 17a6 9a29 d41d 0f26
00000050: c9ac a329 1ea3 b8a2 08ac 3d98 1fad 7d8c
00000060: 922b e42f eaac 2b29 bfa9 4121 552b 5818
00000070: f92b bfad 3328 f6a4 1226 641e 679f d228
00000080: aba4 b6ad 312a d425 0bae 1629 f3a6 baa7
00000090: e822 dea8 dda3 ac2b a72d 089c 49ac 4fa4
000000a0: 1522 0d21 63a4 e926 eead d0aa 022b 372b
000000b0: f39f edae ed9d 5cab faa4 aea4 9aab 4b25
000000c0: f328 b6a9 0926 78aa 902a 47ac a929 4da3
000000d0: c0ac 902d fb2b ada7 adab 612e 6e2d 5d2c
000000e0: 69aa faa8 ef2f 6a2c cdad dcac 1fa8 f3a6
000000f0: b52a 87ad 87ad 7bad 7aa0 1f2f 222c e6a4
00000100: 6ead e5a6 102c 7da8 8da1 5cae 97ac 4427
00000110: 10a0 fead 7f29 b0ab c7a9 6f25 34ad fa2a
00000120: 5e2b b324 3d9c 7b2c 252e 33a9 472a f5a4
00000130: 5aa5 032c b49c cf21 f329 182a 0aa6 3229
00000140: 232c c0ad 852d 4c14 8ca8 b1ab 1c25 82a4
00000150: 8b28 9728 65a2 9b18 40a4 b82c c52d 802a
00000160: 45ad 16ac 6eaa 281b 072b dbac 44af c62e
00000170: cbad 9726 742a 7e9d 6f2b 2523 3b2c 43aa
00000180: aa28 73ae faa9 65a8 53ab 5d24 db25 3a28
00000190: c726 14a8 3dac 7dac ee2c ecad 85ac 212b
000001a0: f7a5 f9ac 872c 95ad 2ea3 3aa4 3fa9 14ad
000001b0: 0aa0 cdab 78a2 81a8 46ae 14ad 692c 5c22
000001c0: baa9 b5ac a027 ed9f 69a1 289a 5099 a12c
000001d0: 5ba6 4d2a e6af 61a7 331f b2aa 62a8 26a9
000001e0: 162c fe2c 37a8 2ea7 1d29 4c2e 35ad 40a9
000001f0: 84aa 44a6 7d2c 9e29 dfac ab2b 12a8 ab28

b1.conv2.bias f2 [12]
0.04382 0.03256 -0.07574 0.0804 -0.00972 0.012825 0.00359 -0.002092
0.004387 0.02582 -0.04837 0.0553
00000000: 9c29 2b28 d9ac 252d faa0 9122 5a1b 4998
00000010: 7e1c 9c26 31aa 142b

b1.bn2.weight f2 [12]
1.057 1.0 0.982 0.959 1.023 0.9834 0.9736 0.9673
1.026 0.972 0.97 0.979
00000000: 3a3c 003c db3b ac3b 183c de3b ca3b bd3b
00000010: 1b3c c73b c33b d53b

b1.bn2.bias f2 [12]
0.05743 0.00689 0.02908 0.01224 0.04675 -0.0294 0.01768 -0.001479
0.07697 0.007233 -0.01223 0.0209
00000000: 5a2b 0e1f 7227 4422 fc29 87a7 8724 0f96
00000010: ed2c 681f 43a2 5a25

b1.bn2.running_mean f2 [12]
0.0798 -0.1611 -0.4875 0.4255 -0.0499 0.6533 -0.09656 0.014725
-0.0414 -0.198 -0.2433 0.11273
00000000: 1b2d 28b1 cdb7 cf36 63aa 3a39 2eae 8a23
00000010: 4da9 56b2 c9b3 372f

b1.bn2.running_var f2 [12]
0.0636 0.1803 0.08496 0.2117 0.0922 0.6377 0.10236 0.1637
0.1335 0.1327 0.2024 0.143
00000000: 122c c531 702d c632 e72d 1a39 8d2e 3d31
00000010: 4630 3f30 7a32 9330

b2.conv1.weight f2 [18, 12, 3, 3]
-0.0685 0.03076 -0.11285 -0.0753 -0.01238 -0.0851 -0.0952 -0.0795
-0.08044 -0.0004232 0.05258 0.006805 -0.02768 -0.066 0.01315 -0.02527
-0.006065 -0.0891 -0.07513 0.05072 -0.05438 0.0934 0.067 0.04007
0.02324 0.0502 -0.04214 -0.0973 0.03223 0.0739 0.01817 0.06073
-0.01921 0.0467 0.0764 -0.04266 -0.01345 0.02649 -0.03375 0.06232
-0.07355 -0.0433 0.07684 -0.05383 -0.02347 0.01938 0.02965 0.10815
0.0454 0.09515 0.03168 0.08026 0.08514 -0.07166 0.04797 -0.08826
-0.02254 -0.0632 0.00553 -0.0392 0.06854 -0.09406 -0.06042 -0.0717
0.03882 -0.11127 -0.05734 -0.04672 -0.1077 0.04227 0.03065 0.03204
0.07526 0.03726 -0.0954 0.03093 0.08765 0.06836 0.03223 -0.01996
0.0725 0.001314 0.02847 -0.02042 0.04565 0.01672 -0.08105 0.0638
-0.1041 0.06186 0.04688 -0.01504 -0.05228 -0.06058 -0.00489 0.0764
-0.01503 -0.02838 0.01181 -0.01327 0.05807 -0.01659 -0.10913 -0.03885
0.01784 -0.09296 0.0653 0.0006566 0.0199 0.0257 -0.005463 -0.07776
-0.08264 0.02826 0.04666 0.03162 0.05286 -0.001917 0.0365 0.07245
-0.0745 0.027 -0.03096 0.03583 0.0727 0.04337 0.06287 -0.0685
-0.074 0.1062 -0.09125 0.00262 0.02003 -0.0105 0.04062 -0.05682
0.003397 -0.1036 0.01537 0.01434 0.01205 -0.03894 -0.02124 -0.05936
-0.02519 -0.02022 0.06665 -0.08527 -0.05124 -0.04684 -0.12415 -0.04028
0.001162 -0.0315 -0.02596 0.02167 0.003538 -0.02414 -0.01341 0.05475
-0.0567 0.0282 0.005753 0.0005116 -0.0665 -0.0483 -0.03067 -0.001045
-0.06082 -0.05652 0.0666 -0.11865 0.02129 -0.11365 0.05292 -0.05667
-0.0169 0.07324 0.06537 -0.00924 0.04437 -0.1365 0.04092 0.11523
-0.06027 0.053 0.02353 0.082 0.04376 0.01086 0.01868 0.05124
-0.0325 0.02397 -0.04388 -4.51e-05 -0.00581 -0.0793 0.01115 0.04584
0.0814 0.05328 0.02608 -0.02638 -0.1055 -0.08777 0.04938 0.01653
-0.08057 -0.0561 0.07184 -0.02702 -0.05255 0.03029 -0.03818 0.1154
-0.0851 0.0774 -0.02745 0.04343 -0.09045 -0.0373 0.12085 -0.0631
-0.10706 0.01796 0.0806 -0.05502 -0.0889 0.06525 0.1029 -0.0918
-0.10504 -0.068 -0.0738 0.0674 -0.0768 -0.04785 0.005733 -0.02869
0.05075 0.01929 -0.08185 0.04572 0.03635 0.03775 0.0865 -0.04272
0.02739 -0.05472 -0.03845 -0.05048 -0.04803 -0.0836 0.09125 0.06433
00000000: 62ac e027 39af d2ac 57a2 72ad 18ae 17ad
00000010: 26ad ef8e bb2a f81e 16a7 39ac bc22 78a6
00000020: 369e b4ad cfac 7e2a f6aa fa2d 4a2c 2129
00000030: f325 6d2a 65a9 3aae 2028 bb2c a724 c62b
00000040: eba4 fa29 e42c 76a9 e3a2 c826 52a8 fa2b
00000050: b5ac 8ba9 eb2c e4aa 02a6 f624 9727 ec2e
00000060: d029 172e 0e28 232d 732d 96ac 242a a6ad
00000070: c5a5 0bac aa1d 05a9 632c 05ae bcab 97ac
00000080: f828 1faf 57ab fba9 e5ae 6929 d927 1a28
00000090: d12c c528 1bae eb27 9c2d 602c 2028 1ca5
000000a0: a42c 6215 4a27 3aa5 d829 4824 30ad 152c
000000b0: aaae eb2b 002a b3a3 b1aa c1ab 029d e42c
000000c0: b2a3 44a7 0c22 cba2 6f2b 3fa4 fcae f9a8
000000d0: 9124 f3ad 2e2c 6111 1825 9426 989d faac
000000e0: 4aad 3c27 f929 0c28 c42a da97 ac28 a32c
000000f0: c5ac e926 eda7 9628 a72c 8d29 062c 62ac
00000100: bcac cc2e d7ad 5e19 2125 60a1 3329 46ab
00000110: f51a a1ae df23 5823 2b22 fca8 70a5 99ab
00000120: 73a6 2da5 442c 75ad 8faa ffa9 f2af 28a9
00000130: c214 08a8 a5a6 8c25 3f1b 2ea6 dea2 022b
00000140: 42ab 3827 e41d 3110 42ac 2faa daa7 4894
00000150: c9ab 3cab 432c 98af 7325 46af c62a 41ab
00000160: 54a4 b02c 2f2c bba0 ae29 5eb0 3d29 602f
00000170: b7ab c92a 0626 3f2d 9a29 8f21 c824 8f2a
00000180: 29a8 2326 9ea9 f582 f39d 13ad b521 de29
00000190: 362d d22a ad26 c1a6 c1ae 9ead 522a 3b24
000001a0: 28ad 2eab 992c eba6 baaa c127 e3a8 632f
000001b0: 72ad f42c 07a7 8f29 caad c6a8 bc2f 0aac
000001c0: daae 9924 292d 0bab b1ad 2d2c 962e e0ad
000001d0: b9ae 5aac b9ac 502c eaac 20aa df1d 58a7
000001e0: 7f2a f024 3dad da29 a728 d528 892d 78a9
000001f0: 0327 01ab eca8 76aa 26aa 5aad d72d 1e2c

b2.conv1.bias f2 [18]
0.0799 0.0471 -0.03046 0.04047 -0.05246 0.04056 0.0805 0.02797
0.03143 0.007008 -0.0888 -0.04904 -0.01209 0.03772 -0.04773 -0.03824
-0.04395 0.01292
00000000: 1d2d 072a cca7 2e29 b7aa 3129 272d 2927
00000010: 0628 2d1f afad 47aa 31a2 d428 1caa e5a8
00000020: a0a9 9d22

b2.bn1.weight f2 [18]
0.9883 1.024 0.9736 0.984 1.004 0.9746 0.961 0.996
1.006 0.99 1.04 1.032 0.979 0.998 1.006 0.9766
1.004 0.982
00000000: e83b 193c ca3b df3b 043c cc3b b03b f83b
00000010: 063c ec3b 293c 213c d53b fc3b 063c d03b
00000020: 043c db3b

b2.bn1.bias f2 [18]
-0.04028 0.00907 -0.01561 -0.01813 0.04483 -0.00441 -0.00731 -0.02248
-0.0003948 -0.0005674 0.0675 0.097 -0.003086 0.02603 0.009514 -0.0272
0.012054 -0.02109
00000000: 28a9 a520 fea3 a4a4 bd29 849c 7c9f c1a5
00000010: 788e a690 522c 352e 529a aa26 df20 f7a6
00000020: 2c22 66a5

b2.bn1.running_mean f2 [18]
-0.1897 -0.2064 -0.278 -0.7793 -0.5894 0.6177 0.235 0.1722
-0.4038 -0.0945 -0.2163 -0.4172 0.3948 -0.32 -0.2484 -0.142
-0.5483 -0.508
00000000: 12b2 9bb2 73b4 3cba b7b8 f138 8533 8331
00000010: 76b6 0cae ecb2 adb6 5136 1fb5 f3b3 8bb0
00000020: 63b8 10b8

b2.bn1.running_var f2 [18]
0.5396 0.2174 0.2424 0.4133 0.2343 0.3748 0.2489 0.2324
0.3044 0.1995 0.2751 0.2605 0.4722 0.2534 0.3328 0.2668
0.4426 0.3352
00000000: 5138 f532 c233 9d36 7f33 ff35 f733 7033
00000010: df34 6232 6734 2b34 8e37 0e34 5335 4534
00000020: 1537 5d35

b2.conv2.weight f2 [18, 18, 3, 3]
0.04272 0.0498 0.0726 0.0335 0.0514 0.07074 -0.05902 0.01833
-0.00798 -0.0725 0.04797 0.00972 0.001172 -0.0297 -0.05963 0.0708
-0.05566 -0.0254 -0.09644 0.05505 -0.013855 -0.012 -0.03607 0.0010805
0.05402 -0.01974 0.0619 0.02104 0.04425 -0.01889 0.005867 -0.003736
0.05692 -0.05292 -0.05557 -0.00795 0.01836 0.0274 0.003283 0.02678
-0.03108 -0.1009 0.0763 0.05832 0.0356 -0.083 0.06335 -0.0475
-0.04315 0.0644 -0.0353 0.003149 -0.0507 -0.0223 -0.0224 -0.0001338
0.00697 -0.01539 -0.03072 -0.01935 -0.01001 -0.03864 0.01564 -0.001362
0.0229 -0.04968 0.01396 0.0819 0.0508 0.00357 -0.0942 0.03146
0.0465 -0.04657 0.01218 0.012566 -0.007687 0.03415 -0.01869 0.039
0.04434 -0.03378 -0.00765 -0.01765 -0.04205 -0.0339 -0.005184 -0.03854
-0.02356 -0.00393 0.03583 0.03723 0.0699 -0.04993 -0.01036 0.0419
-0.04306 -0.0994 -0.0545 -0.04742 0.08734 0.0169 -0.0623 -0.04382
0.09125 -0.01749 -0.06152 0.00944 0.0473 -0.07745 -0.08484 0.02065
-0.0842 0.03029 -0.02145 -0.03897 -0.02379 -0.08594 -0.05508 0.0226
0.1051 0.01487 -0.05234 0.0776 0.02393 -0.04053 0.01862 -0.01945
0.02353 -0.09436 0.0493 -0.05276 -0.03525 0.05032 -0.0419 -0.09766
-0.01584 0.0507 -0.04062 -0.07806 -0.013176 0.0641 0.01396 -0.09326
0.00794 -0.02722 0.05273 0.02875 0.01302 0.009766 -0.0811 0.03522
-0.03445 0.01396 0.01216 0.06647 -0.1312 0.0577 0.0815 -0.0599
-0.08704 -0.003483 0.009415 -0.03372 0.00866 0.06525 -0.02443 -0.0348
0.03766 -0.004707 0.02737 -0.04034 0.06714 0.02834 -0.03223 -0.00516
0.00627 0.04443 -0.01322 0.01283 0.000377 -0.01166 -0.0337 0.007614
0.0436 0.0005755 -0.005756 -0.0688 -0.02144 0.06384 0.01764 -0.0686
0.0537 -0.013565 0.08026 -0.0502 0.02678 -0.02267 0.0194 0.04736
-0.05338 0.06854 0.04846 -0.04993 0.013176 0.01595 0.05533 0.03842
-0.02693 -0.09296 0.00662 0.01863 -0.0536 0.03296 -0.04138 -0.03986
-0.02939 0.05405 -0.06396 0.05 -0.0439 0.0522 -0.0266 -0.01022
-0.068 0.08075 -0.05078 -0.07196 0.01773 0.03094 0.05994 -0.07007
0.01172 0.03119 -0.0549 0.05774 -0.0425 -0.02925 0.013695 -0.0477
-0.0863 -0.08124 -0.02373 -0.02034 0.04715 -0.03006 -0.001477 -0.000296
-0.066 0.0369 -0.02602 0.03238 -0.0681 0.0639 0.02022 0.04108
00000000: 7829 602a a52c 4a28 942a 872c 8eab b124
00000010: 16a0 a4ac 242a fa20 cd14 9aa7 a2ab 882c
00000020: 20ab 81a6 2cae 0c2b 18a3 25a2 9ea8 6d14
00000030: ea2a 0ea5 ec2b 6325 aa29 d6a4 021e a79b
00000040: 492b c6aa 1dab 12a0 b324 0427 b91a db26
00000050: f5a7 75ae e22c 772b 8f28 50ad 0e2c 14aa
00000060: 86a9 1f2c 85a8 731a 7daa b5a5 bca5 6288
00000070: 231f e1a3 dda7 f4a4 20a1 f2a8 0124 9495
00000080: dd25 5caa 2623 3e2d 812a 501b 07ae 0728
00000090: f429 f6a9 3c22 6f22 df9f 5f28 c9a4 fe28
000000a0: ad29 53a8 d59f 85a4 62a9 57a8 4f9d efa8
000000b0: 08a6 069c 9628 c428 792c 64aa 4ea1 5d29
000000c0: 83a9 5dae faaa 12aa 972d 5424 f9ab 9ca9
000000d0: d72d 7aa4 e0ab d520 0e2a f5ac 6ead 4925
000000e0: 64ad c127 7ea5 fda8 17a6 80ad 0dab c925
000000f0: ba2e 9d23 b3aa f72c 2026 30a9 c424 fba4
00000100: 0626 0aae 4f2a c1aa 83a8 712a 5da9 40ae
00000110: 0ea4 7d2a 33a9 ffac bfa2 1a2c 2623 f8ad
00000120: 1120 f8a6 c02a 5c27 ab22 0021 31ad 8228
00000130: 69a8 2623 3a22 412c 33b0 632b 372d abab
00000140: 92ad 229b d220 51a8 6f20 2d2c 41a6 74a8
00000150: d228 d29c 0227 2aa9 4c2c 4127 20a8 499d
00000160: 6c1e b029 c5a2 9222 2d0e f8a1 50a8 cc1f
00000170: 9529 b710 e59d 67ac 7da5 162c 8424 64ac
00000180: e02a f2a2 232d 6daa db26 cea5 f724 102a
00000190: d5aa 632c 342a 64aa bf22 1524 152b eb28
000001a0: e5a6 f3ad c71e c524 dcaa 3828 4ca9 1aa9
000001b0: 86a7 eb2a 18ac 662a 9fa9 ae2a cfa6 3ca1
000001c0: 5aac 2b2d 80aa 9bac 8a24 ec27 ac2b 7cac
000001d0: 0022 fc27 07ab 642b 71a9 7da7 0323 1baa
000001e0: 86ad 33ad 13a6 35a5 092a b2a7 0d96 da8c
000001f0: 39ac b928 a9a6 2528 5cac 172c 2d25 4229

b2.conv2.bias f2 [18]
0.03476 0.03314 0.0858 -0.04623 -0.04697 0.02405 0.04465 0.02425
0.0337 0.03207 -0.0306 0.0258 0.0637 -0.012405 0.0746 -0.03668
0.09106 0.00512
00000000: 7328 3e28 7e2d eba9 03aa 2826 b729 3526
00000010: 5028 1b28 d5a7 9b26 142c 5aa2 c62c b2a8
00000020: d42d 3e1d

b2.bn2.weight f2 [18]
1.065 0.9707 0.967 1.014 0.9844 1.005 0.964 0.9585
0.9805 0.9897 0.981 0.9897 1.017 1.004 0.997 0.995
0.987 0.9834
00000000: 433c c43b bc3b 0e3c e03b 053c b63b ab3b
00000010: d83b eb3b d93b eb3b 113c 043c fa3b f63b
00000020: e53b de3b

b2.bn2.bias f2 [18]
0.000973 -0.012115 -0.0384 -0.05057 -0.00358 0.01536 -0.02162 -0.03564
-0.01345 -0.01689 -0.01263 -0.00499 -0.04504 -0.03882 0.00959 -0.02731
-0.04367 -0.00907
00000000: f913 34a2 eaa8 79aa 559b dd23 89a5 90a8
00000010: e3a2 53a4 77a2 1c9d c4a9 f8a8 e920 fea6
00000020: 97a9 a5a0

b2.bn2.running_mean f2 [18]
-0.2057 -0.0333 -0.1573 -0.3406 -0.692 -0.3862 0.0351 -0.1672
0.08453 -0.6924 0.04398 -0.5703 -0.1023 0.2301 0.1514 -0.1131
0.583 -0.545
00000000: 95b2 43a8 09b1 73b5 89b9 2eb6 7e28 5ab1
00000010: 692d 8ab9 a129 90b8 8cae 5d33 d830 3daf
00000020: aa38 5cb8

b2.bn2.running_var f2 [18]
0.11615 0.146 0.1091 0.1833 0.1609 0.08606 0.1044 0.1956
0.1898 0.1471 0.0968 0.1141 0.10565 0.1688 0.1259 0.15
0.1144 0.193
00000000: 6f2f ac30 fb2e de31 2631 822d ae2e 4232
00000010: 1332 b530 322e 4d2f c32e 6731 0730 cd30
00000020: 522f 2d32

b3.conv1.weight f2 [36, 18, 3, 3]
0.0499 0.0175 -0.06113 0.0818 0.0521 -0.06494 0.007805 0.0757
-0.014534 0.05054 0.0748 -0.0418 -0.0394 -0.0453 0.04938 -0.0449
-0.003525 0.04358 0.00685 0.05026 -0.02281 -0.0942 -0.0934 0.0739
-0.001881 -0.03064 -0.0003147 -0.0588 0.076 0.0356 0.00975 0.1106
-0.03812 0.02321 0.07996 -0.02536 0.0942 -0.01415 -0.0387 0.06036
0.0557 0.03607 0.0459 0.02191 0.0699 -0.001541 -0.07 -0.0547
-0.01808 -0.0901 -0.04428 0.0687 0.02922 -0.04776 -0.05588 0.02885
-0.07153 -0.0616 0.0476 -0.03069 -0.0342 0.0536 0.06192 -0.003681
0.00464 -0.07666 0.05432 0.0354 -0.0127 -0.0006375 -0.0711 0.02829
0.02142 0.04654 -0.05762 -0.01194 0.03099 -0.09924 -0.04153 0.0348
-0.1064 0.06726 0.0668 0.05777 0.0337 -0.03912 -0.03687 0.08966
0.0007186 0.014336 0.05923 -0.05652 -0.0725 -0.00915 -0.0761 0.01404
-0.0799 0.04123 0.03668 0.0622 -0.03265 -0.03748 0.0834 -0.0415
-0.02385 0.02953 -0.0062 0.05646 0.02382 -0.0159 0.007404 0.0002897
0.03918 0.058 -0.002218 -0.05106 -0.08936 0.0572 -0.03079 0.05026
-0.003862 0.0603 -0.01299 0.006622 -0.05304 0.06082 0.0174 0.02638
-0.04294 0.03006 0.05768 0.0721 0.0494 -0.005272 -0.0764 -0.04388
-0.04633 0.02724 0.06586 0.03146 -0.06122 0.00468 0.0424 0.0201
-0.03622 -0.03476 0.03406 -0.0252 -0.06354 0.02695 0.03607 -0.01698
0.04617 0.006084 0.0388 -0.0377 -0.03543 -0.05496 -0.1072 0.0171
-0.01996 -0.01204 -0.00622 -0.0158 0.00877 -0.08954 0.002335 0.0721
-0.06396 0.01486 0.10443 0.0368 -0.03107 0.02834 -0.06506 -0.03256
0.00814 0.01978 -0.04053 -0.02791 0.00909 0.004032 0.0472 0.02943
0.01923 -0.0395 -0.04556 -0.03156 0.02878 0.02702 0.01727 0.03616
-0.077 0.03098 -0.0011215 0.0835 -0.02649 0.02509 -0.05072 0.10425
-0.02444 0.00791 -0.05426 -0.05487 0.0457 -0.006336 -0.07806 -0.008
0.07104 -0.0799 -0.01239 0.0939 -0.0679 0.05908 -0.06616 0.08264
-0.0198 -0.03488 0.00921 0.05908 -0.0912 -0.0329 -0.00494 -0.05865
-0.04846 0.06915 -0.02129 -0.0923 0.05038 0.07654 0.04224 -0.0609
-0.04785 0.09796 -0.0809 0.02254 -0.05496 -0.0707 -0.01427 -0.03467
-0.02956 -0.01114 0.01059 0.04175 0.03647 -0.01651 0.0621 0.04483
-0.057 0.03656 0.02936 0.04486 -0.01539 0.06174 0.01778 -0.0219
00000000: 632a 7b24 d3ab 3c2d ab2a 28ac fe1f d82c
00000010: 71a3 782a ca2c 5aa9 0ba9 cca9 522a bfa9
00000020: 389b 9429 041f 6f2a d7a5 07ae faad bb2c
00000030: b497 d8a7 288d 87ab dd2c 8f28 fe20 142f
00000040: e1a8 f125 1e2d 7ea6 072e 3fa3 f4a8 ba2b
00000050: 212b 9e28 e029 9c25 792c 5096 7bac 00ab
00000060: a1a4 c4ad aba9 662c 7b27 1daa 27ab 6327
00000070: 94ac e3ab 182a dba7 61a8 dc2a ed2b 8a9b
00000080: c01c e8ac f42a 8828 81a2 3991 8dac 3e27
00000090: 7c25 f529 60ab 1da2 ef27 5aae 51a9 7428
000000a0: cfae 4e2c 462c 652b 5028 02a9 b8a8 bd2d
000000b0: e311 5723 952b 3cab a4ac afa0 dfac 3023
000000c0: 1dad 4729 b228 f62b 2ea8 cca8 562d 50a9
000000d0: 1ba6 8f27 599e 3a2b 1926 12a4 951f bf0c
000000e0: 0429 6d2b 8b98 89aa b8ad 522b e2a7 6f2a
000000f0: e99b b82b a7a2 c81e caaa c92b 7424 c126
00000100: 7fa9 b227 622b 9d2c 532a 669d e4ac 9ea9
00000110: eea9 f926 372c 0728 d6ab cb1c 6d29 2525
00000120: a3a8 73a8 5c28 74a6 11ac e626 9e28 59a4
00000130: e929 3b1e f728 d3a8 89a8 09ab dcae 6124
00000140: 1ca5 2aa2 5f9e 0ba4 7e20 bbad c818 9d2c
00000150: 18ac 9c23 af2e b628 f4a7 4127 2aac 2ba8
00000160: 2b20 1025 30a9 25a7 a720 211c 0b2a 8927
00000170: ec24 0ea9 d5a9 0aa8 5e27 eb26 6c24 a128
00000180: eeac ee27 9894 582d c8a6 6c26 7eaa ac2e
00000190: 42a6 0d20 f2aa 06ab d929 7d9e ffac 19a0
000001a0: 8c2c 1dad 58a2 022e 58ac 902b 3cac 4a2d
000001b0: 12a5 77a8 b720 902b d6ad 36a8 0f9d 82ab
000001c0: 34aa 6d2c 73a5 e8ad 732a e62c 6829 ccab
000001d0: 20aa 452e 2dad c525 09ab 86ac 4ea3 70a8
000001e0: 91a7 b4a1 6c21 5829 ab28 3aa4 f32b bd29
000001f0: 4cab ae28 8427 be29 e1a3 e72b 8d24 9ba5

b3.conv1.bias f2 [36]
0.0437 -0.04688 -0.02614 0.04028 -0.02771 -0.02766 -0.02298 -0.05255
0.0651 0.03683 0.011375 -0.06964 -0.08124 0.05817 0.0004413 0.04248
-0.04507 0.06726 -0.05356 0.065 -0.05225 -0.0818 -0.06015 0.07166
0.007156 0.02063 -0.0826 0.0106 -0.01976 -0.0505 -0.0697 -0.02489
-0.007515 -0.07904 0.0858 -0.007027
00000000: 9829 00aa b1a6 2829 18a7 15a7 e2a5 baaa
00000010: 2b2c b728 d321 75ac 33ad 722b 3b0f 7029
00000020: c5a9 4e2c dbaa 292c b0aa 3cad b3ab 962c
00000030: 541f 4825 49ad 6d21 0fa5 77aa 76ac 5fa6
00000040: b29f 0fad 7e2d 329f

b3.bn1.weight f2 [36]
0.9907 1.016 1.005 0.983 1.021 0.985 0.9736 1.001
0.9897 1.025 0.992 0.9893 0.9805 0.968 0.998 0.9814
1.016 0.975 1.002 0.9883 0.988 1.001 0.9736 1.038
0.9893 0.9897 0.9883 1.003 1.01 0.997 1.006 1.01
1.005 0.973 0.983 0.9688
00000000: ed3b 103c 053c dd3b 163c e13b ca3b 013c
00000010: eb3b 1a3c f03b ea3b d83b be3b fc3b da3b
00000020: 103c cd3b 023c e83b e73b 013c ca3b 273c
00000030: ea3b eb3b e83b 033c 0a3c fa3b 063c 0a3c
00000040: 053c c93b dd3b c03b

b3.bn1.bias f2 [36]
-0.02008 0.02286 0.01923 -0.01865 -0.005905 0.005154 -0.01118 -0.04285
-0.0234 -0.04767 0.0193 -0.02449 -0.02034 -0.038 -0.01418 -0.01991
0.00565 -0.01743 -0.05658 -0.02756 -0.01102 -0.039 -0.01505 3.284e-05
0.02942 -0.03308 -0.0319 -0.01854 -0.02353 -0.011955 -0.04883 -0.03638
-0.0223 -0.01932 -0.01068 -0.0143
00000000: 24a5 da25 ec24 c6a4 0c9e 471d b9a1 7ca9
00000010: fea5 1aaa f124 45a6 35a5 dda8 43a3 19a5
00000020: c91d 76a4 3eab 0ea7 a4a1 fea8 b5a3 2702
00000030: 8827 3ca8 15a8 bfa4 06a6 1fa2 40aa a8a8
00000040: b5a5 f2a4 78a1 52a3

b3.bn1.running_mean f2 [36]
0.1959 -0.09937 -0.284 -0.1154 -0.1471 -0.833 0.623 0.675
0.89 0.4211 -0.7334 -0.703 -1.259 1.078 0.01735 -0.11163
0.6094 -0.37 0.962 0.1071 0.2722 0.0901 -0.2808 -0.01822
-0.3242 0.6333 0.6216 0.738 -0.00822 0.2122 0.68 0.1737
-0.4324 0.05402 -0.649 0.2047
00000000: 4532 5cae 8bb4 63af b5b0 aaba fc38 6639
00000010: 1f3b bd36 deb9 a0b9 09bd 503c 7124 25af
00000020: e038 ecb5 b23b db2e 5b34 c42d 7eb4 aaa4
00000030: 30b5 1139 f938 e739 35a0 ca32 7139 8f31
00000040: ebb6 ea2a 31b9 8d32

b3.bn1.running_var f2 [36]
0.1853 0.2026 0.1475 0.217 0.1312 0.2253 0.188 0.2627
0.2184 0.1506 0.411 0.3525 0.2295 0.2673 0.1923 0.1987
0.1564 0.2446 0.2612 0.309 0.1906 0.2073 0.212 0.2161
0.2128 0.3372 0.2032 0.1515 0.1219 0.134 0.2795 0.2615
0.159 0.1614 0.1918 0.2382
00000000: ee31 7c32 b830 f232 3330 3633 0432 3434
00000010: fd32 d230 9336 a435 5833 4734 2732 5c32
00000020: 0131 d433 2e34 f234 1932 a232 c932 ea32
00000030: cf32 6535 8132 d930 cd2f 4a30 7934 2f34
00000040: 1731 2a31 2332 9f33

b3.conv2.weight f2 [36, 36, 3, 3]
0.00912 0.023 0.00055 -0.006184 0.0195 0.02777 0.04028 0.01312
-0.001431 -0.01388 -0.0173 0.011734 0.04034 0.00512 -0.06274 0.003187
-0.02403 -0.06097 0.01802 -0.03976 0.0436 0.03506 -0.06836 0.0301
-0.0482 -0.05185 -0.02722 -0.0305 0.03275 -0.01605 -0.009056 0.002186
-0.02324 -0.00543 -0.04205 0.03772 0.05804 0.05643 0.01239 -0.01706
0.05228 0.0218 0.01163 0.02237 -0.02028 -0.05536 0.04364 -0.008514
-0.008 -0.03616 -0.02357 -0.03238 0.003363 0.03632 -0.01831 0.03998
-0.0475 -0.0242 -0.03333 0.06354 -0.0452 -0.01551 -0.04178 0.01492
-0.01997 -0.07434 0.01898 -0.006042 0.00738 0.00782 0.01918 0.000259
0.004227 -0.0192 -0.03403 -0.008766 0.0432 -0.0445 -0.03452 0.01697
0.01964 0.01851 -0.04767 -0.02997 0.04263 0.02997 0.02705 -0.06415
-0.02931 0.05527 0.006184 -0.01585 -0.0349 0.01944 -0.01558 0.00909
-0.01596 -0.002745 -0.01396 -0.033 0.0376 0.0765 0.03064 0.02492
-0.02719 -0.006763 0.04498 -0.05917 -0.01585 0.03035 -0.002989 0.04767
0.01733 -0.04312 -0.01974 -0.0332 -0.02565 0.01398 0.001086 -0.03062
0.00011605 -0.0429 0.02129 -0.005978 0.04236 0.003473 0.0425 0.06122
-0.01555 0.025 -0.00637 0.05734 -0.03815 -0.06573 0.0685 0.02107
0.01367 0.0215 -0.0665 0.02267 0.0373 0.0068 0.0461 -0.02475
0.02956 -0.03412 0.02449 0.02443 0.001997 0.05316 -0.0591 0.01168
0.0346 0.01411 0.04343 0.04755 -0.04645 0.014 0.02277 0.0531
-0.0437 0.02806 -0.01572 -0.041 -0.02905 -0.00448 0.03436 -0.01913
-0.0268 -0.003902 0.01723 0.0472 0.04214 0.0004478 -0.002478 0.001579
0.0356 -0.01569 0.00568 -0.004345 0.02129 -0.0472 0.00931 -0.04187
-0.02568 0.04517 -0.0344 0.03394 0.00364 0.006863 0.002245 -0.0254
-0.01512 0.04773 -0.04105 0.03973 -0.01159 0.05847 -0.02306 0.03793
-0.02783 0.041 -0.01085 -0.04184 -0.07733 -0.00634 0.02858 -0.04755
0.00971 0.0999 0.02701 -0.041 0.00984 0.02501 -0.02927 -0.03546
0.02628 0.03513 -0.006252 0.02106 0.02742 -0.02922 -0.0416 0.0445
-0.02107 -0.03207 0.03638 0.0587 -0.02934 0.007095 0.0417 0.0475
0.04523 -0.01006 -0.03638 -0.06134 0.01458 0.02246 -0.03613 -0.0149
0.02917 -0.001292 0.04538 -0.0356 -0.013725 -0.0339 0.0159 0.04178
0.0679 0.0454 -0.01235 0.06116 0.01519 -0.02621 0.02751 0.01217
00000000: ab20 e325 8110 559e fe24 1c27 2829 b822
00000010: dd95 1ba3 6ea4 0222 2a29 3e1d 04ac 871a
00000020: 27a6 ceab 9d24 17a9 9529 7d28 60ac b527
00000030: 2baa a3aa f8a6 cfa7 3128 1ca4 a3a0 7a18
00000040: f3a5 8f9d 62a9 d428 6e2b 392b 5822 5ea4
00000050: b12a 9525 f421 ba25 31a5 16ab 9629 5ca0
00000060: 19a0 a1a8 09a6 25a8 e31a a628 b0a4 1e29
00000070: 14aa 32a6 44a8 112c c9a9 f1a3 59a9 a423
00000080: 1da5 c2ac dc24 309e 8f1f 0120 e924 3e0c
00000090: 541c eaa4 5ba8 7da0 8829 b2a9 6ba8 5824
000000a0: 0725 bd24 1aaa aca7 7529 ac27 ed26 1bac
000000b0: 81a7 132b 551e 0fa4 78a8 fa24 faa3 a720
000000c0: 16a4 9f99 26a3 39a8 d028 e52c d827 6126
000000d0: f6a6 ed9e c229 93ab 0fa4 c527 1f9a 1a2a
000000e0: 7024 85a9 0ea5 40a8 91a6 2823 7314 d7a7
000000f0: 9b07 7ea9 7325 1f9e 6c29 1d1b 7129 d62b
00000100: f6a3 6626 869e 572b e2a8 35ac 622c 6525
00000110: 0023 8125 42ac ce25 c628 f71e e729 56a6
00000120: 9127 5ea8 4526 4126 1718 ce2a 91ab fb21
00000130: 6e28 3923 8f29 162a f2a9 2b23 d425 cc2a
00000140: 98a9 2f27 06a4 3fa9 70a7 969c 6628 e6a4
00000150: dca6 fe9b 6924 0b2a 6529 560f 1399 7816
00000160: 8f28 04a4 d11d 739c 7325 0baa c420 5ca9
00000170: 93a6 c829 67a8 5828 741b 071f 9918 81a6
00000180: bea3 1c2a 41a9 1629 efa1 7c2b e7a5 db28
00000190: 20a7 3f29 8ea1 5ba9 f3ac 7e9e 5127 16aa
000001a0: f920 652e ea26 3fa9 0a21 6726 7ea7 8aa8
000001b0: ba26 7f28 679e 6425 0527 7ba7 53a9 b229
000001c0: 65a5 1ba8 a828 832b 83a7 441f 5629 142a
000001d0: ca29 27a1 a8a8 daab 7723 c025 a0a8 a1a3
000001e0: 7827 4b95 cf29 8fa8 07a3 57a8 1224 5929
000001f0: 582c d029 53a2 d42b c723 b6a6 0b27 3b22

b3.conv2.bias f2 [36]
0.01107 -0.037 0.02876 0.0709 -0.03516 -0.01776 0.0677 -0.01723
-0.0602 -0.01778 0.00427 0.0289 -0.02196 -0.02463 0.011284 0.004555
0.00459 0.0544 -0.02623 -0.01784 -0.0428 -0.0415 0.02483 0.0336
0.0184 0.05157 0.048 0.04288 -0.01926 -0.03217 -0.0241 -0.067
0.01559 0.02338 0.03217 0.0156
00000000: ab21 bca8 5d27 8a2c 80a8 8ca4 552c 69a4
00000010: b5ab 8da4 5f1c 6627 9fa5 4ea6 c721 aa1c
00000020: b31c f72a b7a6 91a4 7aa9 50a9 5b26 4d28
00000030: b624 9a2a 252a 7d29 eea4 1ea8 2ba6 4aac
00000040: fb23 fc25 1e28 fd23

b3.bn2.weight f2 [36]
0.993 0.9956 0.9604 1.03 0.9717 0.9604 0.961 1.0
1.036 1.033 0.956 0.962 0.9976 0.9756 0.9697 1.016
0.9985 0.9775 0.989 0.941 1.02 0.9863 0.979 1.0
0.9644 0.961 0.9634 0.981 1.024 0.9966 0.995 1.006
0.965 1.034 1.002 1.015
00000000: f23b f73b af3b 1f3c c63b af3b b03b 003c
00000010: 253c 223c a63b b23b fb3b ce3b c23b 103c
00000020: fd3b d23b e93b 873b 143c e43b d53b 003c
00000030: b73b b03b b53b d93b 193c f93b f63b 063c
00000040: b83b 233c 023c 0f3c

b3.bn2.bias f2 [36]
-0.03186 0.001197 -0.02007 -0.0638 -0.02835 -0.0483 -0.03537 -0.01504
-0.03998 -0.01677 -0.02034 -0.04816 -0.0531 -0.0243 -0.0342 0.004074
0.00701 -0.0471 0.000884 -0.0542 -0.01418 -0.0545 -0.04175 -0.0686
-0.00404 -0.001147 0.000693 -0.05292 -0.04352 -0.0669 -0.02928 -0.0727
-0.00445 0.0003142 -0.02684 -0.01686
00000000: 14a8 e714 23a5 15ac 42a7 2faa 87a8 b3a3
00000010: 1ea9 4ba4 35a5 2aaa ccaa 39a6 61a8 2c1c
00000020: 2e1f 07aa 3e13 f0aa 43a3 faaa 58a9 64ac
00000030: 239c b394 ad11 c6aa 92a9 48ac 7fa7 a7ac
00000040: 8f9c 260d dfa6 51a4

b3.bn2.running_mean f2 [36]
0.12164 -0.637 -0.4238 0.01099 -0.149 0.275 -0.953 -0.1975
0.435 -0.2356 0.1866 0.1437 -0.2213 -0.575 0.3958 -0.0868
-0.4368 0.3918 -0.4138 -0.913 0.2136 0.0307 0.1451 0.0456
-0.7026 -0.4268 -0.4558 0.122 -0.1666 0.6323 0.2217 -0.4456
-0.1575 -0.1707 0.4377 -0.0301
00000000: c92f 19b9 c8b6 a021 c5b0 6634 a0bb 52b2
00000010: f636 8ab3 f931 9930 15b3 9ab8 5536 8ead
00000020: fdb6 4536 9fb6 4ebb d632 dc27 a530 d629
00000030: 9fb9 d4b6 4bb7 cf2f 55b1 0f39 1833 21b7
00000040: 0ab1 76b1 0137 b5a7

b3.bn2.running_var f2 [36]
0.1581 0.507 0.2678 0.251 0.2329 0.1987 0.4048 0.3047
0.4788 0.3057 0.2898 0.2438 0.206 0.1846 0.2732 0.278
0.312 0.2251 0.2203 0.4563 0.2822 0.2725 0.1898 0.25
0.3486 0.3506 0.2754 0.2196 0.3684 0.2842 0.2299 0.2593
0.2344 0.2803 0.284 0.2798
00000000: 0f31 0e38 4934 0434 7433 5c32 7a36 e034
00000010: a937 e434 a334 cd33 9832 e831 5f34 7334
00000020: fe34 3433 0d33 4d37 8434 5c34 1332 0034
00000030: 9435 9c35 6834 0733 e535 8c34 5b33 2634
00000040: 8033 7c34 8b34 7a34

b4.conv1.weight f2 [48, 36, 3, 3]
-0.0176 0.04544 0.0613 0.02718 0.05997 -0.04526 -0.02824 -0.01996
-0.0181 0.0159 0.013145 -0.02312 -0.03555 -0.00884 0.03024 0.022
0.0544 0.04175 0.01204 0.02615 -0.04538 -0.02878 -0.01834 0.02634
-0.01697 0.028 0.01738 -0.01557 0.07837 0.05066 0.0723 0.01536
0.0499 -0.03424 -0.02936 -0.04236 -0.000745 -0.0405 0.015205 -0.002893
-0.00383 -0.03955 0.05307 0.01622 -0.006176 -0.05298 -0.0004513 -0.03102
-0.03836 0.0566 0.006645 0.01653 -0.0259 0.01494 -0.05093 -0.000828
-0.02422 -0.00505 8.29e-05 0.00813 0.0297 0.02086 -0.02048 0.06198
0.0635 0.02802 -0.00704 0.0552 0.01788 -0.01791 0.04913 -0.0385
-0.02332 -0.012276 0.05762 -0.04935 0.01286 -0.02081 -0.05984 0.012024
0.0449 -0.007263 0.01851 0.0211 0.04272 0.0492 -0.03723 -0.04135
0.04318 0.01143 -0.02855 0.04147 0.008385 -0.03262 -0.00977 0.04608
0.04697 -0.04947 -0.05896 -0.04266 0.0613 0.0051 -0.0306 0.05072
-0.0402 0.01727 -0.02222 -0.06616 -0.02939 0.03598 0.003765 0.0322
0.04068 -0.0003579 -0.01816 -0.00721 -0.02888 0.04407 0.005615 -0.0443
-0.02768 0.0367 0.03726 0.015594 0.02296 0.027 -0.02885 0.02306
-0.03482 -0.002531 0.0625 -0.01804 0.05267 -0.0002234 -0.05246 -0.03305
0.002232 0.01947 -0.01686 0.06335 0.0449 -0.0462 -0.02864 -0.01898
0.03445 -0.0397 -0.03061 0.0692 0.04642 0.05148 0.04236 0.01457
-0.02077 -0.01118 -0.004215 0.03268 0.02257 0.03497 0.02477 -0.0486
0.03772 -0.02556 0.02498 -0.0416 0.002037 0.03918 0.0004528 0.04135
-0.02238 -0.0389 0.05176 0.02403 -0.01549 -0.04276 0.0711 -0.0006084
-0.0388 0.01169 0.005817 0.03903 -0.0006785 0.06168 -0.02974 0.04767
-0.02702 -0.0387 0.02559 -0.06805 -0.01205 -0.00426 0.02747 0.05627
-0.0787 0.01643 0.0736 -0.01733 -0.0561 0.02695 0.0008736 -0.01129
0.0468 0.02103 -0.03845 0.02873 -0.005634 0.01543 -0.05856 -0.0396
-0.02977 -0.01834 0.0693 -0.03592 -0.03693 -0.02237 0.010796 -0.006668
0.0511 -0.0228 0.011475 -0.01743 0.01732 -0.0558 0.04395 -0.04596
0.05624 -0.03143 -0.04108 -0.05203 0.02063 0.04318 -0.01811 -0.0327
0.04474 -0.02954 0.02267 -0.01776 0.006927 0.0198 0.0223 -0.00861
0.002764 0.00846 -0.03983 0.00546 0.08453 -0.03534 -0.00187 -0.04828
-0.05026 -0.0002704 -0.0341 0.00808 -0.0342 0.01276 0.0694 -0.04016
00000000: 81a4 d129 d92b f526 ad2b cba9 3ba7 1ca5
00000010: a2a4 1224 bb22 eba5 8da8 87a0 be27 a225
00000020: f72a 5829 2a22 b226 cfa9 5ea7 b2a4 be26
00000030: 58a4 2b27 7324 f9a3 042d 7c2a a12c dd23
00000040: 632a 62a8 84a7 6ca9 1a92 2fa9 c923 ed99
00000050: d89b 10a9 cb2a 2724 539e c8aa 658f f1a7
00000060: e9a8 3f2b ce1e 3b24 a1a6 a623 85aa c892
00000070: 33a6 2c9d 6f05 2a20 9a27 5725 3ea5 ef2b
00000080: 102c 2c27 359f 112b 9424 96a4 4a2a eea8
00000090: f8a5 49a2 602b 51aa 9622 54a5 a9ab 2822
000000a0: bf29 709f bd24 6725 7829 4c2a c4a8 4ba9
000000b0: 8729 da21 4fa7 4f29 4b20 2da8 01a1 e629
000000c0: 032a 55aa 8cab 76a9 d92b 391d d5a7 7e2a
000000d0: 25a9 6c24 b0a5 3cac 86a7 9b28 b61b 1f28
000000e0: 3529 dd8d a6a4 629f 65a7 a429 c01d aca9
000000f0: 16a7 b328 c528 fc23 e125 e926 63a7 e725
00000100: 75a8 2f99 002c 9ea4 be2a 528b b7aa 3ba8
00000110: 9218 fc24 51a4 0e2c bf29 eaa9 55a7 dca4
00000120: 6928 15a9 d6a7 6e2c f129 972a 6c29 7623
00000130: 51a5 b9a1 519c 2f28 c725 7a28 5726 39aa
00000140: d428 8ba6 6526 53a9 2c18 0429 6b0f 4b29
00000150: bba5 fba8 a02a 2726 eea3 79a9 8d2c fc90
00000160: f7a8 fc21 f51d ff28 8f91 e52b 9da7 1a2a
00000170: eba6 f4a8 8d26 5bac 2ba2 5d9c 0827 342b
00000180: 09ad 3524 b62c 70a4 2eab e626 2813 c8a1
00000190: fe29 6225 eca8 5b27 c59d e623 7fab 12a9
000001a0: 9fa7 b2a4 6f2c 99a8 baa8 baa5 8721 d49e
000001b0: 8a2a d6a5 e021 76a4 6f24 24ab a029 e2a9
000001c0: 332b 06a8 42a9 a9aa 4825 8729 a3a4 30a8
000001d0: ba29 90a7 ce25 8ca4 181f 1225 b525 69a0
000001e0: a919 5520 19a9 971d 692d 86a8 a997 2eaa
000001f0: 6faa 6e8c 5da8 2320 61a8 8822 712c 24a9

b4.conv1.bias f2 [48]
-0.036 -0.015495 0.04465 -0.051 -0.02081 -0.03032 0.0486 0.0263
-0.04114 0.00246 -0.001383 -0.004333 0.01445 -0.02124 -0.03522 -0.01252
0.06683 0.00153 0.0434 0.02881 -0.03897 0.014046 0.04987 -0.002409
0.0561 0.03958 0.02133 0.03705 -0.037 -0.06122 0.0567 0.05096
-0.02676 0.02275 0.03714 -0.05222 -0.03433 0.02284 -0.0325 -0.02904
-0.01707 -0.04 -0.03638 0.01139 -0.007328 0.02344 0.02701 -0.00746
00000000: 9ca8 efa3 b729 87aa 54a5 c3a7 392a bc26
00000010: 44a9 0a19 aa95 709c 6623 70a5 82a8 69a2
00000020: 472c 4416 8e29 6027 fda8 3123 622a ef98
00000030: 2e2b 1129 7625 be28 bca8 d6ab 422b 862a
00000040: daa6 d325 c128 afaa 65a8 d925 29a8 6fa7
00000050: 5fa4 1fa9 a8a8 d521 819f 0026 ea26 a49f

b4.bn1.weight f2 [48]
0.9893 0.971 0.996 1.0 0.9517 0.991 1.007 0.9766
1.0 1.004 1.002 0.9785 0.9614 0.9863 0.989 0.9893
0.997 1.014 1.004 0.9995 1.004 1.005 0.9673 0.9863
0.974 1.016 0.9775 0.9883 0.9756 1.002 1.007 0.99
0.9824 0.982 0.994 1.001 0.9844 0.979 0.962 0.985
1.051 0.989 1.025 1.002 0.9673 1.017 1.006 0.9873
00000000: ea3b c53b f83b 003c 9d3b ee3b 073c d03b
00000010: 003c 043c 023c d43b b13b e43b e93b ea3b
00000020: fa3b 0e3c 043c ff3b 043c 053c bd3b e43b
00000030: cb3b 103c d23b e83b ce3b 023c 073c ec3b
00000040: dc3b db3b f43b 013c e03b d53b b23b e13b
00000050: 343c e93b 1a3c 023c bd3b 113c 063c e63b

b4.bn1.bias f2 [48]
-0.02682 -0.00898 -0.0419 -0.05136 -0.02045 -0.05743 -0.01112 -0.0287
-0.014015 -0.0434 -0.02722 -0.05652 -0.02565 -0.0559 -0.001806 -0.0618
-0.04834 -0.01633 -0.0376 -0.05017 -0.0245 0.02945 -0.01611 -0.02794
-0.05316 -0.0739 -0.006744 0.002163 0.009056 -0.05255 -0.02406 -0.05536
-0.0535 -0.02722 -0.0288 -0.03998 -0.0163 -0.0436 -0.01762 0.014984
-0.0699 0.008644 -0.03275 -0.0417 -0.02188 -0.04196 -0.03397 -0.02875
00000000: dea6 99a0 5da9 93aa 3ca5 5aab b2a1 59a7
00000010: 2da3 8ea9 f8a6 3cab 91a6 28ab 6697 e9ab
00000020: 30aa 2ea4 d0a8 6caa 46a6 8a27 20a4 27a7
00000030: ceaa bbac e89e 6e18 a320 baaa 29a6 16ab
00000040: d9aa f8a6 5fa7 1ea9 2ca4 95a9 83a4 ac23
00000050: 79ac 6d20 31a8 56a9 9aa5 5fa9 59a8 5ca7

b4.bn1.running_mean f2 [48]
0.6665 -1.605 1.575 0.8433 -1.115 0.616 0.1992 -0.3115
0.1942 1.551 0.972 0.849 -0.4817 0.2206 -0.684 1.336
0.885 0.574 0.5225 1.197 -0.2615 -1.2 -1.268 -0.503
1.003 0.3206 1.313 -0.9673 -1.05 0.597 0.2937 1.148
-0.081 0.78 -0.3801 1.402 -0.9873 0.904 -1.104 -1.216
-0.4297 -1.745 -0.04364 0.81 -0.2542 1.298 0.948 0.6636
00000000: 5539 6cbe 4d3e bf3a 76bc ee38 6032 fcb4
00000010: 3732 343e c73b cb3a b5b7 0f33 79b9 583d
00000020: 143b 9838 2e38 ca3c 2fb4 cdbc 12bd 06b8
00000030: 033c 2135 413d bdbb 33bc c738 b334 983c
00000040: 2fad 3d3a 15b6 9c3d e6bb 3b3b 6abc ddbc
00000050: e0b6 fbbe 96a9 7b3a 11b4 313d 963b 4f39

b4.bn1.running_var f2 [48]
0.4656 0.7075 0.823 0.5117 0.3367 0.314 0.3047 0.4753
0.4915 0.675 0.4248 0.398 0.308 0.595 0.4207 0.5063
0.562 0.4983 0.5103 0.4443 0.3003 0.576 0.621 0.3665
0.4497 0.3325 0.4595 1.058 1.33 0.339 0.523 0.4446
0.2734 0.41 0.3315 0.5894 0.665 0.4543 0.561 0.7827
0.3193 1.589 0.4602 0.4626 0.3943 0.4438 0.4683 0.4265
00000000: 7337 a939 963a 1838 6335 0635 e034 9b37
00000010: dd37 6639 cc36 5e36 ee34 c338 bb36 0d38
00000020: 7f38 f937 1538 1c37 ce34 9c38 f838 dd35
00000030: 3237 5235 5a37 3b3c 523d 6d35 2f38 1d37
00000040: 6034 8f36 4e35 b738 5239 4537 7d38 433a
00000050: 1c35 5b3e 5d37 6737 4f36 1a37 7e37 d336

b4.conv2.weight f2 [48, 48, 3, 3]
-0.05176 -0.001614 0.017 -0.00883 -0.003162 0.05017 0.00563 0.001482
-0.01598 0.01129 0.03568 -0.0363 -0.01805 -0.001387 -0.04095 0.01233
-0.008415 -0.007687 0.01978 -0.00398 0.04007 0.0116 0.01962 -0.0425
-0.007515 -0.02492 -0.01071 -0.0008707 0.004333 0.01566 -0.0353 0.02724
0.02542 -0.03806 0.010345 -0.009735 -0.00894 0.01207 -0.01203 0.03436
0.004566 0.02159 -0.0527 0.004852 -0.04218 -0.02469 0.00905 -0.01848
-0.05157 0.002289 -0.01559 0.02078 0.01163 0.04724 -0.05267 -0.03287
-0.04205 0.0318 0.01912 -0.03305 -0.0782 -0.089 -0.06903 0.01584
-0.0392 0.011925 -0.00571 0.02583 0.01901 -0.026 -0.04074 0.01038
0.02002 0.01678 0.03314 0.010086 -0.03128 -0.0482 -0.02864 0.010254
0.002151 -0.0339 0.0274 0.005257 -0.0448 0.02542 -0.0305 -0.01848
-0.0231 0.0176 -0.03226 0.03467 -0.003546 -0.001231 -0.03079 -0.044
0.001184 -0.04187 -0.01903 0.00409 -0.0092 0.01304 0.0014515 -0.03195
-0.0494 -0.011284 -0.04468 0.00798 0.03854 -0.03537 0.01483 0.001402
0.01904 0.0188 -0.02003 0.01678 -0.03482 -0.03345 -0.06494 -0.03134
-0.005756 -0.0556 -0.012634 0.002005 0.03534 0.00773 0.02069 0.01133
0.02335 0.03226 -0.02332 -0.000644 0.0361 0.02852 0.00768 -0.02483
0.002735 0.02768 -0.05298 0.03687 0.02785 -0.0161 -0.03018 0.02507
-0.01086 -0.001883 0.02872 0.03195 -0.0335 0.01043 -0.02626 0.02747
-0.002213 0.04324 0.002823 -0.009415 0.00948 -0.03333 0.0461 -0.0457
0.0491 0.014885 -0.02296 -0.0393 -0.01313 -0.0424 0.0337 -0.001039
-0.00948 -7.02e-05 0.02766 0.001414 -0.0348 -0.01979 0.0405 -0.04095
-0.03745 -0.04224 -0.05362 -0.03403 0.03375 0.01391 -0.04367 -0.014244
-0.03604 0.05386 0.03598 0.01539 0.02516 -0.03372 0.01958 -0.03873
0.0652 -0.0293 0.04517 -0.03111 -0.013885 -0.04398 -0.0286 -0.01903
0.0361 0.04218 0.02559 0.03168 -0.0179 -0.05594 -0.01566 -0.0335
0.03445 -0.01072 0.01195 -0.0203 -0.000721 -0.02895 -0.001437 0.02762
-0.022 -0.02716 -0.013306 -0.0417 0.02956 -0.000566 0.01599 0.00424
-0.0182 -0.007355 -0.0391 0.03998 -0.03964 -0.0537 -0.02776 -0.01605
0.01268 0.0616 -0.0345 0.03162 -0.0334 -0.03622 0.01186 -0.01332
0.01978 -0.02017 -0.001469 0.02005 -0.0406 0.013885 -0.04132 0.03032
-0.01765 -0.04214 -0.01209 0.04227 -0.0514 0.01944 -0.011475 -0.00946
00000000: a0aa 9c96 5a24 85a0 7a9a 6c2a c41d 1216
00000010: 17a4 c821 9128 a5a8 9fa4 ae95 3ea9 5022
00000020: 4fa0 df9f 1025 139c 2129 f021 0625 71a9
00000030: b29f 61a6 7ca1 2293 701c 0224 85a8 f926
00000040: 8226 dfa8 4c21 fca0 94a0 2e22 29a2 6628
00000050: ad1c 8725 bfaa f81c 66a9 52a6 a220 bba4
00000060: 9aaa b018 fba3 5225 f421 0c2a beaa 35a8
00000070: 62a9 1228 e524 3ba8 01ad b2ad 6bac 0e24
00000080: 05a9 1b22 d99d 9d26 de24 a8a6 37a9 5121
00000090: 2025 4c24 3e28 2a21 01a8 2baa 55a7 4021
000000a0: 6818 57a8 0427 621d bca9 8226 cfa7 bba4
000000b0: eaa5 8124 21a8 7028 439b 0b95 e2a7 a2a9
000000c0: da14 5ca9 dfa4 301c b6a0 ad22 f215 17a8
000000d0: 53aa c7a1 b8a9 1620 ef28 87a8 9823 be15
000000e0: e024 d024 21a5 4c24 75a8 48a8 28ac 03a8
000000f0: e59d 1eab 78a2 1b18 8628 ea1f 4c25 cd21
00000100: fa25 2128 f8a5 4791 9f28 4d27 dd1f 5ba6
00000110: 9a19 1627 c8aa b828 2127 1fa4 baa7 6b26
00000120: 8fa1 b697 5a27 1728 4aa8 5721 b9a6 0827
00000130: 8898 8929 c819 d2a0 db20 44a8 e729 d9a9
00000140: 492a 9f23 e1a5 08a9 b9a2 6da9 5028 4194
00000150: dba0 9a84 1527 cb15 74a8 11a5 2f29 3ea9
00000160: cba8 68a9 ddaa 5ba8 5228 1f23 97a9 4ba3
00000170: 9da8 e52a 9b28 e123 7126 51a8 0325 f5a8
00000180: 2c2c 80a7 c829 f7a7 1ca3 a1a9 52a7 dfa4
00000190: 9f28 6629 8d26 0e28 95a4 29ab 02a4 4aa8
000001a0: 6928 7da1 1e22 32a5 e891 69a7 e395 1227
000001b0: a2a5 f4a6 d0a2 56a9 9127 a390 1824 571c
000001c0: a9a4 889f 01a9 1e29 13a9 e0aa 1ba7 1ca4
000001d0: 7e22 e32b 6aa8 0c28 46a8 a3a8 1322 d2a2
000001e0: 1025 2aa5 0496 2225 32a9 1c23 4aa9 c327
000001f0: 85a4 65a9 31a2 6929 94aa fa24 e0a1 d8a0

b4.conv2.bias f2 [48]
-0.009995 0.00744 -0.004406 0.0374 0.03802 0.01009 -0.02904 -0.05716
-0.02698 -0.0447 0.006107 -0.02945 0.02104 -0.02617 0.006607 0.01665
0.0205 0.02087 0.00917 -0.01147 0.04285 -0.03333 0.0454 -0.0445
0.01189 0.02144 -0.01823 -0.03 -0.0473 0.0408 -0.02924 -0.0032
0.0539 -0.002838 0.02657 -0.01439 -0.005398 0.02979 -0.04907 -0.03403
0.01209 0.02644 0.01505 -0.043 0.03503 0.02527 0.05692 0.0642
00000000: 1ea1 9e1f 839c ca28 de28 2b21 6fa7 51ab
00000010: e8a6 b9a9 411e 8aa7 6325 b3a6 c41e 4324
00000020: 3f25 5825 b220 dfa1 7c29 44a8 d029 b2a9
00000030: 1622 7d25 aba4 aea7 0eaa 3929 7ca7 8e9a
00000040: e62a d099 cd26 5ea3 879d a027 48aa 5ba8
00000050: 3122 c526 b523 81a9 7c28 7826 492b 1c2c

b4.bn2.weight f2 [48]
0.9956 0.981 0.995 0.9844 1.004 1.021 0.984 0.9854
0.988 1.008 0.9766 0.9873 0.9897 1.048 0.9736 0.9688
1.009 1.01 1.012 1.022 0.9663 0.9863 0.999 0.9775
0.9824 0.994 0.9854 0.998 0.9775 1.008 1.012 0.9897
0.9883 1.004 1.003 0.9614 1.011 1.004 1.027 1.014
1.0 0.9956 1.003 1.001 0.9814 0.9497 1.025 0.9756
00000000: f73b d93b f63b e03b 043c 163c df3b e23b
00000010: e73b 083c d03b e63b eb3b 313c ca3b c03b
00000020: 093c 0a3c 0c3c 173c bb3b e43b fe3b d23b
00000030: dc3b f43b e23b fc3b d23b 083c 0c3c eb3b
00000040: e83b 043c 033c b13b 0b3c 043c 1c3c 0e3c
00000050: 003c f73b 033c 013c da3b 993b 1a3c ce3b

b4.bn2.bias f2 [48]
0.03302 -0.06003 -0.01778 -0.0443 -0.01231 -0.01523 -0.01055 -0.04294
-0.00644 -0.02153 0.02138 0.02446 -0.0491 -0.06158 -0.014694 -0.03656
-0.0488 0.03555 0.0399 0.005566 -0.04648 -0.06073 -0.005726 -0.102
-0.06915 -0.07275 -0.07367 -0.0609 -0.0406 0.0217 0.004616 -0.04907
-0.04056 -0.01843 -0.01094 -0.0789 -0.01772 0.007328 0.05426 -0.00979
0.01384 -0.056 -0.0725 0.02008 0.015045 -0.087 0.03195 -0.1304
00000000: 3a28 afab 8da4 aca9 4da2 cca3 67a1 7fa9
00000010: 989e 83a5 7925 4326 49aa e2ab 86a3 aea8
00000020: 3faa 8d28 1b29 b31d f3a9 c6ab dd9d 87ae
00000030: 6dac a8ac b7ac ccab 32a9 8e25 ba1c 48aa
00000040: 31a9 b8a4 9aa1 0dad 89a4 811f f22a 03a1
00000050: 1623 2bab a4ac 2425 b423 91ad 1728 2cb0

b4.bn2.running_mean f2 [48]
-0.869 0.945 0.1544 0.5005 -0.11725 -0.281 -0.2542 -0.2273
-0.393 -0.2229 -0.8755 -1.017 0.747 -0.0837 -0.3447 0.75
0.2037 -0.952 -1.006 -0.3254 -0.10626 0.9087 -0.1932 1.394
1.049 1.248 1.086 -0.08167 0.3499 -0.5225 -0.501 -0.1637
0.9106 -0.3455 -0.3853 1.125 -0.3013 -0.667 -0.9995 -0.4053
-0.2922 0.1276 1.244 -0.5386 -0.6543 1.064 -0.3308 1.561
00000000: f4ba 8f3b f130 0138 81af 7fb4 11b4 46b3
00000010: 4ab6 22b3 01bb 11bc fa39 5bad 84b5 003a
00000020: 8532 9ebb 06bc 35b5 cdae 453b 2fb2 933d
00000030: 323c fe3c 583c 3aad 9935 2eb8 02b8 3db1
00000040: 493b 87b5 2ab6 803c d2b4 56b9 ffbb 7cb6
00000050: adb4 1530 fa3c 4fb8 3cb9 423c 4bb5 3e3e

b4.bn2.running_var f2 [48]
0.738 0.958 0.3613 0.368 0.5586 0.315 0.7744 0.955
0.432 0.413 1.6045 1.19 0.621 0.4045 0.3103 0.357
0.627 0.811 0.656 0.487 0.452 0.881 0.346 1.306
0.6514 1.105 0.938 0.811 0.6855 0.72 0.4214 0.681
0.7993 0.359 0.3625 0.995 0.4224 0.799 0.434 0.4854
0.537 0.3083 0.6396 0.6226 0.985 0.9946 0.635 1.022
00000000: e739 aa3b c835 e335 7838 0a35 323a a43b
00000010: e936 9c36 6b3e c33c f838 7936 f734 b635
00000020: 0439 7d3a 3f39 cb37 3b37 0c3b 8935 393d
00000030: 3639 6c3c 813b 7d3a 7c39 c339 be36 7339
00000040: 653a be35 cd35 f63b c236 643a f236 c437
00000050: 4c38 ef34 1e39 fb38 e13b f53b 1439 173c

b5.conv1.weight f2 [64, 48, 3, 3]
0.0484 -0.02643 0.06158 -0.00951 0.02184 -0.01761 -0.0201 -0.01703
0.06964 0.05096 -0.0675 -0.05972 0.02258 -0.03348 -0.005672 -0.01076
-0.02852 -0.04208 0.0277 -0.03818 0.04117 0.0252 0.01499 0.02681
0.04306 -0.01083 -0.01732 0.05786 -0.005566 0.01837 -0.02911 -0.02519
-0.005287 -0.02336 0.006256 -0.007507 0.00719 -0.02794 -0.03882 0.004074
-0.008896 -0.02655 0.005978 0.009155 -0.03032 0.003149 -0.01222 -0.0583
-0.02046 0.03574 0.0402 0.0008335 0.05518 0.02448 0.02464 0.01697
0.01773 0.01596 0.05484 0.01724 0.02005 0.06134 0.03705 0.0107
0.01221 0.0342 -0.01797 -0.02197 -0.01949 0.0473 -0.008446 0.0055
-0.02945 0.00761 -0.010574 0.00535 0.03038 -0.01523 0.04605 0.004818
-0.0342 -0.0261 0.0417 0.001661 -0.0374 0.01933 0.0385 -0.02496
-0.013596 -0.01683 -0.007343 -0.0185 0.03564 -0.0172 0.0197 0.0532
-0.005047 -0.0324 0.06354 -0.01782 -0.01973 0.0348 0.0405 -0.01788
-0.01426 0.02043 0.02835 0.001657 -0.015305 0.0458 0.01932 -0.01202
0.0404 -0.02608 0.03125 0.03204 -0.02188 -0.005566 0.0693 0.002659
0.02774 0.03296 0.0396 0.03123 0.01584 -0.02406 0.005512 0.0373
0.01988 -0.00511 0.02567 1.28e-05 -0.02348 0.04495 0.01933 -0.01828
-0.004765 -0.00383 0.05774 0.03134 -0.007637 0.03986 0.0542 -0.0311
0.0403 0.02747 0.002596 0.03464 -0.0258 -0.03412 -0.02315 -0.01624
0.06256 -0.03738 0.0198 0.01172 0.0543 -0.01974 -0.003796 0.010025
0.01685 -0.01686 0.04242 0.05576 -0.0003188 0.03683 0.00622 0.0398
0.05786 -0.006058 0.02611 -0.00241 -0.01979 0.0494 0.03378 0.00808
-0.007706 0.0505 -0.01315 -0.02402 -0.006687 0.03662 -0.05804 -0.03108
0.01089 0.0473 -0.01805 -0.02295 0.00876 0.01825 -0.05084 -0.03824
-0.03278 -0.01003 0.02646 -0.005466 -0.01143 -0.006702 0.04935 0.00534
-0.0527 0.04056 0.006382 0.04355 -0.05655 0.02861 -0.00902 -0.0179
-0.02898 -0.011154 -0.0117 0.01997 0.01952 0.04642 0.03317 -0.00544
-0.006878 0.003468 -0.03912 -0.00377 0.02434 -0.01364 0.03418 0.04324
0.0009084 -0.03137 -0.04712 0.004322 -0.02142 -0.02802 0.03946 0.02821
0.03482 0.03253 0.05316 -0.04868 -0.04742 0.0435 -0.006046 0.01892
-0.03598 0.04987 -0.0202 0.02338 0.00843 -0.00883 0.02634 -0.02509
-0.04044 -0.02666 0.03114 0.0371 0.02827 -0.03015 0.02733 0.02547
00000000: 322a c4a6 e22b dea0 9725 82a4 25a5 5ca4
00000010: 752c 862a 52ac a5ab c825 49a8 cf9d 82a1
00000020: 4da7 63a9 1727 e3a8 4529 7426 ad23 dd26
00000030: 8329 8ca1 6fa4 682b b39d b424 74a7 73a6
00000040: 6a9d fba5 681e b09f 5d1f 27a7 f8a8 2c1c
00000050: 8ea0 cca6 1f1e b020 c3a7 731a 42a2 76ab
00000060: 3da5 9328 2529 d412 102b 4426 4f26 5824
00000070: 8a24 1624 052b 6a24 2225 da2b be28 7a21
00000080: 4022 6128 9aa4 a0a5 fda4 0e2a 53a0 a21d
00000090: 8aa7 cb1f 6aa1 7a1d c727 cca3 e529 ef1c
000000a0: 61a8 aea6 5629 ce16 caa8 f324 ee28 64a6
000000b0: f6a2 4fa4 859f bca4 9028 67a4 0b25 cf2a
000000c0: 2b9d 26a8 112c 90a4 0da5 7428 2f29 94a4
000000d0: 4da3 3b25 4227 c916 d6a3 dd29 f224 27a2
000000e0: 2c29 ada6 0028 1a28 9aa5 b39d 6f2c 7219
000000f0: 1a27 3828 1229 ff27 0e24 29a6 a51d c628
00000100: 1725 3c9d 9226 d700 03a6 c129 f324 aea4
00000110: e19c d89b 642b 0328 d29f 1a29 f02a f6a7
00000120: 2929 0827 5119 6f28 9ba6 5ea8 eda5 28a4
00000130: 012c c9a8 1225 0022 f32a 0ea5 c69b 2221
00000140: 5024 51a4 6e29 232b 398d b728 5f1e 1829
00000150: 682b 349e af26 f098 11a5 532a 5328 2320
00000160: e49f 772a bca2 26a6 d99e b028 6eab f5a7
00000170: 9321 0e2a 9fa4 e0a5 7c20 ac24 82aa e5a8
00000180: 32a8 23a1 c626 999d daa1 dd9e 512a 781d
00000190: bfaa 3129 891e 9329 3dab 5327 9ea0 95a4
000001a0: 6ba7 b6a1 fea1 1d25 ff24 f129 3f28 929d
000001b0: 0b9f 1a1b 02a9 b99b 3b26 fca2 6028 8929
000001c0: 7113 04a8 08aa 6d1c 7ca5 2ca7 0d29 3927
000001d0: 7528 2a28 ce2a 3baa 12aa 9129 319e d824
000001e0: 9ba8 622a 2ca5 fc25 5120 85a0 be26 6ca6
000001f0: 2da9 d3a6 f927 c028 3d27 b8a7 ff26 8526
