models/model.pt (torch, 941243 bytes, 68 tensors)

b1.conv1.weight f4 [12, 3, 3, 3]
00000000: 4284 bebd 133b c0bd 32b3 193e ed44 c53d
00000010: 874a 063d 669e 8f3d 9c7b 00be 676e b9bc
00000020: e323 c8bd ed6f b1bd 39b0 8f3d 922e 32be
00000030: 6ddc 983b fd40 963b a44b 393d 436f 3a3e
00000040: e4a7 96bd cfe8 a8bd eddc 513e 643d 0f3e
00000050: c0b5 cebd 6de5 3cbc a4cb 31be ab44 4dbd
00000060: 4f39 5cbd dc81 6ebd 5a0d ca3d 6766 383e
00000070: 0950 083e 4b88 0bbe 9b50 5abd ae86 8d3d
00000080: d4a0 abbc 57ea fd3d 9a7c 75bd d445 f23d
00000090: 86dd 85bd 734e 4fbd cd07 593e 506a adbd
000000a0: 8084 10be 9b3d 173e fb48 383d 4ffc 103e
000000b0: 3ef8 3038 d985 24be dccf f9bd 6056 bbbd
000000c0: d623 35be 4655 85bd c47d 203c 10e1 e3bd
000000d0: f14f ccbd b5f4 5ebc 1edc 23be 33a1 1a3e
000000e0: 11a4 0f3e 02f3 d8bc 83e9 263e ef03 c5bd
000000f0: 1681 b1bd c99e 06be e2c2 f03d 1e69 d4bd
00000100: 2291 6d3d 985b cebb 38c3 13bd 62c4 423d
00000110: 3b2c 0f3d ce13 f13d dafa 45bc f9b8 18be
00000120: 5487 2ebe 182b 28be 65a0 053e 99cc 6f3d
00000130: e7de 553d 8881 30be 2091 29be f680 483e
00000140: c92d 573e cc97 9abb c888 433e 541c a83d
00000150: b8ef bcbd 4eb2 2fbe 8fd7 27be 79d7 843c
00000160: 88ec 28be 9cdc 58bc b258 55be c3d2 903d
00000170: 9348 d0bd 260a fd3c 084b 163d 1ffb 0a3e
00000180: d749 cbbd 1499 71bd 63a4 35bd d433 51be
00000190: 2114 173d 50e8 dabc 8738 9a3d 7f72 0ebd
000001a0: 4e79 443e bbf4 d4bd 7109 403e 4ea7 76bd
000001b0: 2681 06be db51 06be 6194 babc a154 013e
000001c0: 5de2 0cbe 7ed6 5fbd 8854 d3bb eb0e 0bbd
000001d0: fe03 2b3e fbe7 7d3d 2d97 c3bc 1134 3b3e
000001e0: 6397 473d 0ff1 f3bd 6dcb 04be 7e41 1abe
000001f0: 065a acbd 2b1e 0fbe 07eb bf3c bf19 50bd
00000200: b89d 0bbc 4f92 653d a586 96bd dbd7 b2bc
00000210: 8de1 d33d 3473 8bbc 831e 12be b8b0 293e
00000220: bd6c 9b3c 6991 143d 2638 c2bd aad2 e4bd
00000230: c488 843d 1426 083e 6606 37be 8ae3 2fbe
00000240: cd74 303e e633 ccba 721a 6d3d ff32 d1ba
00000250: d31b 30bd 4497 75bd f409 04bd 4184 2c3e
00000260: a151 bfbd cc4e 4cbd 0f88 3bbe 49f2 43be
00000270: 0544 323e d796 5e3c 0cc5 093e 940e 3bbe
00000280: 7b76 073e 302d 12bd 919f 13be 0ca2 d33d
00000290: a81a 37bd ec52 a63d af08 bf3d f784 7d3b
000002a0: 8135 bb3d 1bdc 153d 69d2 ec3b d5b5 393d
000002b0: 24b8 313e e6ad 58bd 680a b4bd 1494 973c
000002c0: b208 edbd 0e64 7538 09bf e5bd 1b71 80bd
000002d0: 9c62 dabc 7aea 15be 5ed2 83bc 0f17 17be
000002e0: f3ca 2dbe 02f4 983d 9653 093e 7013 bf3d
000002f0: d5ba 4f3d a26e d6bd e255 2fbd 690f 9b3d
00000300: 4e3e e23b efe8 12be 1076 b93d 83bc 65bd
00000310: 350f eabc dc63 033e b227 a2bd 844f aabb
00000320: 88f4 ddbd e2a5 95bd a036 b23d 168f c83d
00000330: cdd6 103e cc1e ae3c dd65 a73b cfdc 0d3e
00000340: 81a5 e0bd 3bfd 03be 4c82 1c3c 3005 d13d
00000350: f75a e33d b296 34bd c647 45bd 175a 223d
00000360: d560 adbc e313 043e a6b5 e23d c78c 153e
00000370: a2e6 e3bd 445f 4f3d 12fd 7fbd 756d b3bd
00000380: 2a8f ddbd 2702 f63c 7ef1 053d 905f 94bd
00000390: 7429 263d 4b03 a93d 9653 f7bd 8dc5 853d
000003a0: cefd f9bd 0326 413d 7dac e6bd 0d4e 043e
000003b0: c538 273e 4ae0 e2bd ad3d c53d 9bc5 32be
000003c0: 9b16 b7bd 68d9 27be 4de1 493e 31dd 353d
000003d0: e449 c2bd 673d 29be 2fae 4a3d 98a9 2c3d
000003e0: db5e 9c3d fc76 b63d fa4b 223d f4dc 383e
000003f0: 1ea8 07be 68ca 843b 1b29 873a 1555 27be
-0.0930257 -0.093862675 0.15009764 0.09632287 0.03278592 0.07012634 -0.12547153 -0.022635652
-0.0977247 -0.08663926 0.07016034 -0.17400578 0.0046649487 0.004585384 0.045238152 0.18206505
-0.07356241 -0.0824753 0.20494433 0.13988262 -0.1009326 -0.011529309 -0.17362839 -0.050114315
-0.05376559 -0.058229312 0.09865828 0.18007813 0.13311781 -0.1362621 -0.053299528 0.06910454
-0.020950712 0.123982124 -0.059933282 0.11829725 -0.06536393 -0.050611924 0.21194382 -0.08467543
-0.14113045 0.14769594 0.044991475 0.14158748 4.2192863e-05 -0.16066684 -0.12197849 -0.09147334
-0.17689452 -0.06510405 0.00979561 -0.11126912 -0.09976185 -0.013608147 -0.16001937 0.15100555
0.1402743 -0.026483063 0.16300015 -0.09619891 -0.08667199 -0.13146509 0.11755921 -0.10371612
0.057999738 -0.00629754 -0.036074847 0.047550566 0.03495429 0.117713556 -0.012083733 -0.14914311
-0.17043811 -0.16422689 0.13049467 0.05854473 0.05221453 -0.17236912 -0.16559267 0.19580445
0.2101356 -0.0047178026 0.19095147 0.08208528 -0.0922541 -0.17157862 -0.16390823 0.016216027
-0.1649648 -0.013236191 -0.20834616 0.070714496 -0.101700924 0.030888628 0.03669265 0.13572358
-0.09926193 -0.058983877 -0.044346225 -0.20429927 0.03688443 -0.026722103 0.07530313 -0.03477716
0.19186899 -0.10398241 0.18753602 -0.060218148 -0.13135204 -0.13117163 -0.02277583 0.1262994
-0.13758226 -0.054647915 -0.006449286 -0.033949774 0.16700742 0.061988812 -0.023875797 0.1828158
0.048728358 -0.11911213 -0.12968226 -0.15064046 -0.08415608 -0.13976352 0.0234275 -0.050805803
-0.00852149 0.056047734 -0.073499 -0.021831444 0.10345755 -0.017022707 -0.14269452 0.16571319
0.018972749 0.036271486 -0.09483366 -0.111729935 0.064713985 0.13295776 -0.17873535 -0.17176643
0.17232056 -0.0015579432 0.05788655 -0.0015960633 -0.042995285 -0.05995871 -0.032236055 0.16847326
-0.09341741 -0.049879834 -0.18313621 -0.19135393 0.1740876 0.013585768 0.13454074 -0.1826728
0.1322879 -0.035687625 -0.14416339 0.10333642 -0.044703156 0.08121285 0.09327828 0.003868399
0.091410644 0.036586862 0.0072272313 0.045339424 0.173554 -0.052900217 -0.08791047 0.018503226
-0.11573924 5.8505735e-05 -0.11218078 -0.06271573 -0.026658349 -0.14640227 -0.016091522 -0.1475489
-0.1697195 0.07468416 0.13410792 0.09329879 0.050715286 -0.1047032 -0.042806514 0.07571299
0.0069044 -0.1434667 0.09055722 -0.056087982 -0.028571704 0.12831062 -0.079177275 -0.0051974673
-0.10837656 -0.0730703 0.08701825 0.097929165 0.1414444 0.02125492 0.0051085786 0.13853763
-0.10969067 -0.12889569 0.00955255 0.102060676 0.111013345 -0.044089027 -0.04816415 0.039636698
-0.021164337 0.12898211 0.11069803 0.14604484 -0.11127974 0.05062796 -0.062497206 -0.08761112
-0.10818322 0.030030323 0.032701008 -0.072447896 0.040566877 0.08252581 -0.120764896 0.065318204
-0.122066125 0.04715539 -0.11263368 0.12920399 0.1633025 -0.11077936 0.09630904 -0.17458193
-0.089398585 -0.16391528 0.19714852 0.044400398 -0.0948675 -0.1652733 0.04948252 0.042153925
0.0763528 0.08909413 0.03962324 0.18053037 -0.13247725 0.004052449 0.0010311933 -0.1634105

b1.conv1.bias f4 [12]
00000000: b6a7 bfbc 3e6d be3d a26d 3c3e 09fe 123e
00000010: 30d0 2ebe 8913 223e a11c 08be 145a 0f3d
00000020: 06a3 ed3d cd38 cdbb b6ef cb3c bcb0 1bbc
-0.0233954 0.0929818 0.18401197 0.14354719 -0.17071605 0.15827765 -0.13292171 0.034998015
0.1160336 -0.0062628747 0.024894577 -0.009502586

b1.bn1.weight f4 [12]
00000000: 3b29 803f 5a5a 7d3f 17bd 863f 7fef 793f
00000010: 9b4f 7b3f b259 7d3f d33f 7b3f 564c 7a3f
00000020: d9fc 803f 6e09 7e3f a753 663f 0ec9 7f3f
1.0012583 0.9896599 1.0526456 0.9763107 0.98168343 0.9896499 0.98144263 0.9777273
1.0077163 0.9923314 0.89971393 0.9991616

b1.bn1.bias f4 [12]
00000000: f3d8 563b 2293 b53c 2da9 2b3e 2d78 b6bc
00000010: fbad 34bd f4ca 56bb d311 063d ec1d 333d
00000020: 4149 3e3d 65e2 503c 165c 8cbc 7ce0 2cbc
0.003278312 0.022164885 0.16763754 -0.022274101 -0.044111233 -0.0032774778 0.032731842 0.043729708
0.04645658 0.012749289 -0.017133754 -0.010551568

b1.bn1.running_mean f4 [12]
00000000: bcdd 7f3c 8d1c 5bbc d72f 2e3e eaa6 883e
00000010: cd59 57bd 9a3f 393e f7f0 2bbe 38ac 2c3d
00000020: 54c9 db3d 4e4c 21bd 1529 19be 94d7 02be
0.01561683 -0.013373506 0.17010437 0.26689845 -0.052575875 0.18090668 -0.1679114 0.042156428
0.1073176 -0.03937941 -0.14957078 -0.12777549

b1.bn1.running_var f4 [12]
00000000: 8389 5a3c 40e1 1e3e edb4 2d3c 32fe ad3d
00000010: 60c0 0a3e 4ec6 893c 9371 c73c 9746 403c
00000020: 7b3e 2a3c 41ad 3d3d c684 7c3e 66f1 423e
0.013338449 0.15515614 0.010602218 0.084957495 0.13549948 0.016818192 0.024346149 0.01173558
0.010390873 0.046307806 0.24660024 0.19037399

b1.conv2.weight f4 [12, 12, 3, 3]
00000000: 87a2 70ba 2013 483d 8942 debc f250 343d
00000010: 81aa a8bd a1c3 cebd 87e9 1a3d a02f 683d
00000020: b51f 223c 8bb7 14bb 263e f73c b33c f83d
00000030: 994d 9dbd 32e0 0d3d 5f41 ffbc 05f2 88bd
00000040: 7c45 73bd fbb9 92bd 8553 b53d 5a0d d83d
00000050: 1b9f b9bb 3b23 a0bb 6e2c 873d 5c8d f83d
00000060: 7cdf 913d 6f26 41bd 1399 0dbc 9820 c3bc
00000070: 48bf 603c f2e1 96bd e6fa 253d e29e 07bc
00000080: ffc4 b6bc 0e95 793d 1c81 893d 56c3 843d
00000090: 95dc c2bc f542 333d cd75 ba3b f2df c13c
000000a0: 561c 99bd 0369 343d 92bd 63bc 7df0 56bc
000000b0: 3cf2 80bd 689b 07bb 2ed7 a3bd f897 8fb9
000000c0: 734a 723d 7b7b fc3d 5734 9dbd dd69 253d
000000d0: 80d0 37bd 522d 283c 4b99 6a3d 83f5 0a3b
000000e0: d812 7f3d bedd b7bd f26d 063d a3bf 9ebc
000000f0: 144f c23c 1a75 cc3b 42d5 ecbb 7445 1a3d
00000100: c565 95bc bdb2 b6bd d426 463d a586 ba3c
00000110: 9457 c1bd aeb9 223d 405e debc fe32 f7bc
00000120: 32fa 5c3c bece 1bbd 9ba2 7bbc 6486 753d
00000130: f7eb b43d fdf0 80bb d61a 89bd 94e1 89bc
00000140: cca1 423c efa7 213c c35c 8cbc 4a15 dd3c
00000150: 45c7 bdbd 0df4 59bd c535 603d 9fd9 663d
00000160: f25c febb df92 ddbd 6596 bdbb 7581 6bbd
00000170: ef4c 9fbc 42ce 95bc 444e 73bd 5d5b a93c
00000180: 1362 1e3d 22be 36bd 5416 c13c d9f3 4ebd
00000190: 16fb 513d e9e9 88bd f922 353d 57aa 69bc
000001a0: 5a00 98bd 9bfa b13d 0460 7f3d 02a2 f5bc
000001b0: 7e9f 75bd 182b cc3d 7ec1 ad3d 3fae 8b3d
000001c0: 2f2f 4dbd 9c43 1fbd 89e5 fd3d 9f4b 8d3d
000001d0: a0ae b9bd 047a 9bbd 4cef 03bd 5f6f debc
000001e0: d59d 563d 48e5 b0bd 92d9 b0bd 9c57 afbd
000001f0: be45 0fbc 53d1 e33d c83b 843d 93b6 9cbc
00000200: a0c2 adbd 9ca9 dcbc f709 823d f8a3 0fbd
00000210: 4c90 31bc 1874 cbbd aee6 92bd 1687 e83c
00000220: b5f0 01bc 6bc6 bfbd 80d4 2f3d cf0e 76bd
00000230: 9dee 38bd f2e8 ad3c f87a a6bd d53a 5f3d
00000240: 09b3 6b3d 4b58 963c 6e9b 87bb c15c 8f3d
00000250: f9a9 c43d 6d67 26bd 96d7 483d caa4 9ebc
00000260: 3d3e abbc f460 803d 068e 96bb d9d0 393c
00000270: 4b6b 3e3d 3b05 433d 323a c1bc e346 263d
00000280: bb61 843d e8f5 b7bd c59a b03d 3270 893a
00000290: 207d 11bd 6016 76bd a181 a33c 613e 90bc
000002a0: 2b59 113d 18eb 123d 779f 4cbc 3654 133b
000002b0: 0c05 88bc 690b 973d 8e91 b83d 98f6 4f3d
000002c0: e091 a8bd 63be 82bd 91cf 4dbd e20e 653b
000002d0: 26d8 603d 9952 9bbd c77a e8bd 3cca d83d
000002e0: 9b67 b9bd cfea d23c 4284 4e3d eacb afbb
000002f0: 62e2 6d3d 64ad 643c c360 873d 9957 48bd
00000300: 9041 153d 5765 cebd 0c3b 3fbd 9b95 0cbd
00000310: de67 6abd 6aa1 8b3c 0f5c bb3c bf41 073d
00000320: edde d83c db7e 02bd 259e 87bd efab 8fbd
00000330: 2ebe 9d3d 668f bdbd bd98 90bd bf18 643d
00000340: bdde bebc eb10 9fbd 9bda 903d 1aa9 b2bd
00000350: 15c9 65bc 204f 87bc 35df 27bd 077c a2bd
00000360: 3b4a 01bc 3190 79bd 330e 4fbc 2020 10bd
00000370: ddb1 c8bd a085 a2bd 872e 8d3d 2a7b 4b3c
00000380: a046 37bd bfa2 96bd ee01 f43c 5fad fdbb
00000390: db15 2dbc fb07 45bb 060b 2abb 7012 943d
000003a0: 1c68 cbbc 3fa8 493d 6bb9 fcbd ce17 ecbc
000003b0: 9855 e63b ec3b 56bd 3549 0cbd 57c5 24bd
000003c0: c0c4 823d a7b4 9f3d 2bea 06bd 60b6 e5bc
000003d0: 93a3 233d 5d7c c93d dba9 a6bd ff0b 28bd
000003e0: bf79 50bd 1480 c8bc 0aa3 8f3d 20c8 333d
000003f0: 4fd7 9bbd fa59 753d 573f 02bd 9f56 153d
-0.0009179492 0.048846364 -0.027131336 0.044022508 -0.08235646 -0.10095907 0.037820365 0.056686044
0.009895255 -0.0022692408 0.030181002 0.121209525 -0.07680816 0.034637637 -0.031159101 -0.066867866
-0.059392437 -0.07164379 0.08853821 0.105494216 -0.005664719 -0.0048870123 0.06600271 0.12136337
0.071227044 -0.047155794 -0.008642453 -0.023819253 0.01371748 -0.073673144 0.04052248 -0.008277627
-0.022310732 0.060933165 0.06714079 0.0648257 -0.023786822 0.043765027 0.0056903125 0.023666356
-0.07476108 0.04404546 -0.013900178 -0.01311886 -0.062962025 -0.0020691995 -0.08000027 -0.0002738831
0.05915303 0.123282395 -0.07675999 0.040384162 -0.044876575 0.010264711 0.057275098 0.0021203465
0.06227383 -0.08977841 0.032819696 -0.019378489 0.023719348 0.0062395455 -0.0072275707 0.037663892
-0.018237004 -0.0892081 0.048376873 0.022769282 -0.09440532 0.03972786 -0.027144551 -0.030175682
0.013487386 -0.03803896 -0.015358592 0.059942618 0.08834069 -0.003934978 -0.06694572 -0.016831197
0.011879396 0.009866699 -0.017134076 0.02698769 -0.09266523 -0.05321126 0.05473878 0.056359883
-0.007762545 -0.10819029 -0.0057857507 -0.057496507 -0.019445864 -0.018286828 -0.05940081 0.020673448
0.03866775 -0.04461492 0.023570217 -0.05052552 0.051264845 -0.0668524 0.044222806 -0.014261804
-0.07421942 0.08690377 0.062347427 -0.029984478 -0.059966557 0.09969157 0.08484171 0.06820344
-0.050093826 -0.038882837 0.12397296 0.06899189 -0.0906651 -0.07591632 -0.032210633 -0.027152715
0.052396614 -0.08637482 -0.08635248 -0.08561632 -0.008744655 0.1112391 0.06456715 -0.019130027
-0.084843874 -0.026936345 0.06349557 -0.035068482 -0.010837626 -0.099342525 -0.07172905 0.028384726
-0.007930924 -0.09364017 0.042927265 -0.060072716 -0.045149434 0.021229241 -0.08128923 0.054499466
0.057543788 0.018352648 -0.0041384017 0.07000113 0.09602732 -0.04062598 0.049033724 -0.019365687
-0.020903701 0.06268492 -0.004594567 0.011341297 0.04648904 0.04761241 -0.02358732 0.040594947
0.06463953 -0.0898245 0.0862327 0.0010485707 -0.03551972 -0.060079932 0.019959273 -0.01760787
0.035485428 0.035868734 -0.012489191 0.0022480614 -0.016603969 0.07375223 0.09012137 0.05077228
-0.082309484 -0.0638397 -0.05024678 0.0034951498 0.054893635 -0.07584114 -0.11351543 0.10585448
-0.09052964 0.025746731 0.0504191 -0.0053648846 0.058077224 0.013957355 0.06610253 -0.048911665
0.03643948 -0.10077923 -0.04668717 -0.034322362 -0.05722796 0.017044742 0.022871045 0.033021685
0.026473487 -0.03185926 -0.066219606 -0.070152156 0.077022895 -0.09255867 -0.070603825 0.055687662
-0.02329957 -0.07766899 0.07072946 -0.0872366 -0.0140249925 -0.016517222 -0.04098435 -0.079338126
-0.007891233 -0.060928527 -0.012637663 -0.035186887 -0.0979955 -0.07935643 0.0689364 0.012419501
-0.044745088 -0.0735526 0.029786076 -0.0077416147 -0.010564293 -0.0030064571 -0.0025946512 0.07230079
-0.024829917 0.049232718 -0.12340053 -0.028819945 0.0070292465 -0.05230324 -0.034249503 -0.04022726
0.06385183 0.077981286 -0.032938164 -0.028041065 0.03995092 0.098381735 -0.08137866 -0.041027065
-0.050897356 -0.024475135 0.07013519 0.043892026 -0.07609426 0.05990026 -0.031798687 0.03645956

b1.conv2.bias f4 [12]
00000000: 5179 333d 8b5d 053d 962c 9bbd 82af a43d
00000010: 5645 1fbc c01e 523c 8541 6b3b c61b 09bb
00000020: dac4 8f3b c08a d33c d215 46bd e47d 623d
0.04381687 0.032559913 -0.075768635 0.08041288 -0.009721121 0.012824714 0.0035897207 -0.0020921095
0.00438748 0.025822997 -0.048360653 0.05529584

b1.bn2.weight f4 [12]
00000000: 5e42 873f 2902 803f 4650 7b3f 4b8c 753f
00000010: 3afd 823f 2fbc 7b3f e639 793f a9aa 773f
00000020: 0f69 833f 0cdd 783f 3463 783f d6a9 7a3f
1.0567129 1.0000659 0.9816936 0.95917195 1.0233529 0.9833402 0.9735397 0.9674478
1.0266436 0.9721229 0.9702637 0.979154

b1.bn2.bias f4 [12]
00000000: 8a44 6b3d 94b2 e13b 344b ee3c ca87 483c
00000010: f872 3f3d 9cde f0bc 24e5 903c 02d0 c1ba
00000020: 4da6 9d3d acfd ec3b 7865 48bc 7838 ab3c
0.05743841 0.0068877432 0.029088594 0.012239406 0.046740502 -0.029403023 0.017687388 -0.0014786723
0.07697735 0.0072323885 -0.012231223 0.02090095

b1.bn2.running_mean f4 [12]
00000000: 4753 a33d 56fd 24be 28a4 f9be bde0 d93e
00000010: 946e 4cbd fe44 273f cec8 c5bd 7b35 713c
00000020: a7a4 29bd 86c7 4abe 2318 79be f4d1 e63d
0.07974868 -0.16112265 -0.48758054 0.42554274 -0.049910143 0.6533965 -0.09657441 0.014722223
-0.04141679 -0.19802675 -0.24325614 0.11270514

b1.bn2.running_var f4 [12]
00000000: 0b33 823d 9e99 383e f300 ae3d 12b7 583e
00000010: f3de bc3d ae4e 233f 2aaf d13d 08a0 273e
00000020: adb1 083e 5bdd 073e 6931 4f3e 7a6d 123e
0.06357392 0.1802735 0.08496275 0.21163586 0.09222212 0.6379193 0.10238488 0.16369641
0.13349028 0.13268034 0.20233692 0.14299574

b2.conv1.weight f4 [18, 12, 3, 3]
00000000: f241 8cbd c10f fc3c 8f28 e7bd 8f3f 9abd
00000010: f5e5 4abc a037 aebd 780f c3bd 2bed a2bd
00000020: 34c9 a4bd 4ee1 ddb9 095b 573d b806 df3b
00000030: 5eb6 e2bc 021b 87bd e07b 573c 87f8 cebc
00000040: a0c3 c6bb 7478 b6bd bdee 99bd 64c7 4f3d
00000050: 61b9 5ebd 1b33 bf3d 7449 893d 5810 243d
00000060: 2861 be3c 7399 4d3d 42ac 2cbd 533a c7bd
00000070: 0bf8 033d 275b 973d d1eb 943c 04cf 783d
00000080: f26b 9dbc aa4f 3f3d be7a 9c3d d1c7 2ebd
00000090: 275e 5cbc 34f7 d83c 2446 0abd 5f3b 7f3d
000000a0: fb9f 96bd fc58 31bd e05f 9d3d 628e 5cbd
000000b0: 5030 c0bc 4ec6 9e3c 9ed5 f23c bd8e dd3d
000000c0: 2b08 3a3d 39d9 c23d 21cf 013d 8a5c a43d
000000d0: 4157 ae3d 29b1 92bd 1879 443d 81b5 b4bd
000000e0: 81a0 b8bc 1e57 81bd 2233 b53b 34ab 20bd
000000f0: 7164 8c3d 0faf c0bd 5475 77bd ece9 92bd
00000100: 8209 1f3d a0d6 e3bd e3d0 6abd f566 3fbd
00000110: b0a1 dcbd 102f 2d3d 7811 fb3c 744e 033d
00000120: 9c2a 9a3d aba2 183d 1b50 c3bd 0666 fd3c
00000130: 6986 b33d a3f9 8b3d 04fc 033d 1d82 a3bc
00000140: 177f 943d 4336 ac3a a936 e93c 2048 a7bc
00000150: 2ff9 3a3d 2203 893c 20fe a5bd bb9b 823d
00000160: af3a d5bd 0869 7d3d dd08 403d 1d6d 76bc
00000170: ea17 56bd 6724 78bd 8349 a0bb b479 9c3d
00000180: c235 76bc 948a e8bc 2770 413c a069 59bc
00000190: f5d6 6d3d 76e2 87bc ed70 dfbd 2721 1fbd
000001a0: 3a28 923c 1063 bebd 95c0 853d 3423 2c3a
000001b0: 8306 a33c e17c d23c 74fc b2bb 1a48 9fbd
000001c0: e94b a9bd 117a e73c 9621 3f3d 2579 013d
000001d0: e68b 583d 2633 fbba 4d80 153d 9c69 943d
000001e0: 1e95 98bd 8f1b dd3c b294 fdbc 0cc9 123d
000001f0: 3bd8 943d 21a0 313d 7bcb 803d b349 8cbd
00000200: 1371 97bd c07d d93d 0be5 babd 78b8 2b3b
00000210: 9b21 a43c 280d 2cbc 6063 263d ebb5 68bd
00000220: 77a3 5e3b f818 d4bd 5fd4 7b3c 900b 6b3c
00000230: d659 453c 538b 1fbd d20d aebc 2127 73bd
00000240: e363 cebc 10a3 a5bc 4f80 883d d199 aebd
00000250: 97de 51bd 85d2 3fbd 4333 febd 47f9 24bd
00000260: 953e 983a 71fe 00bd ffa6 d4bc 0277 b13c
00000270: 51e0 673b cbcd c5bc 55b4 5bbc 6433 603d
00000280: b031 68bd 2405 e73c 1889 bc3b 2026 063a
00000290: ca31 88bd 34ed 45bd 1f37 fbbc 4f05 89ba
000002a0: 4a2a 79bd 2c84 67bd 226f 883d fcf1 f2bd
000002b0: 0f6d ae3c 9eb2 e8bd f3c5 583d 9510 68bd
000002c0: 6583 8abc 990d 963d 95d6 853d 3a6b 17bc
000002d0: 82b0 353d f5c1 0bbe d19e 273d 8f02 ec3d
000002e0: b9de 76bd a81a 593d 46c3 c03c ffd1 a73d
000002f0: 944b 333d 11e5 313c 9df2 983c 7eed 513d
00000300: eb2b 05bd a46b c43c 7dc2 33bd 0d3c 3db8
00000310: dd6b bebb 7a6d a2bd 67a1 363c 82cb 3b3d
00000320: 79bd a63d e23c 5a3d 61a2 d53c 2f15 d8bc
00000330: 0015 d8bd f4c8 b3bd 5444 4a3d 3e51 873c
00000340: 4cfe a4bd 49cf 65bd 2614 933d d152 ddbc
00000350: 5a31 57bd 2d15 f83c 4657 1cbd e255 ec3d
00000360: d242 aebd 2177 9e3d 0be5 e0bc addb 313d
00000370: a23e b9bd b4c4 18bd 027e f73d aa45 81bd
00000380: a84a dbbd 692e 933c a615 a53d ba52 61bd
00000390: c52e b6bd 04a5 853d fdb0 d23d 83f1 bbbd
000003a0: 3611 d7bd 283f 8bbd a32b 97bd 2906 8a3d
000003b0: f032 9dbd 560a 44bd fcdf bb3b 7a0c ebbc
000003c0: a7e5 4f3d 0f08 9e3c f695 a7bd de47 3b3d
000003d0: 77e6 143d 1a90 1a3d a92a b13d ba00 2fbd
000003e0: 7361 e03c 7313 60bd 6a76 1dbd 41b9 4ebd
000003f0: 68b6 44bd 2e36 abbd f5e0 ba3d 96bc 833d
-0.068485156 0.03076923 -0.11287033 -0.07531654 -0.012383928 -0.085067034 -0.09524435 -0.079553925
-0.08046189 -0.0004232027 0.052577052 0.006806221 -0.02767485 -0.06596948 0.013152093 -0.025264991
-0.006065801 -0.08909693 -0.07516239 0.050727263 -0.05437601 0.093359195 0.06703463 0.04005465
0.023239687 0.05019517 -0.042156465 -0.09727921 0.032218974 0.07390433 0.018178852 0.0607443
-0.019216511 0.046706833 0.07640599 -0.04267103 -0.013450182 0.026485063 -0.033758298 0.06231248
-0.073547326 -0.043297753 0.07684302 -0.053846724 -0.023460537 0.019381668 0.029642876 0.10818241
0.045417946 0.09514088 0.031691674 0.08025463 0.08512736 -0.07162697 0.047967046 -0.088236816
-0.022537472 -0.063154444 0.005529777 -0.039225772 0.06855095 -0.0940839 -0.060414627 -0.07173523
0.038827427 -0.11124921 -0.057328116 -0.046729047 -0.10773027 0.04228121 0.030647978 0.03205724
0.07527658 0.037264507 -0.09536763 0.030932438 0.08765871 0.06834724 0.032222763 -0.019959504
0.07250803 0.001313873 0.028468447 -0.020420134 0.045647796 0.016725127 -0.08105111 0.063773595
-0.10411584 0.061867744 0.046883453 -0.015040663 -0.0522689 -0.06058159 -0.004891576 0.076404005
-0.015027465 -0.028386392 0.011806524 -0.013269812 0.058066327 -0.016587477 -0.10910211 -0.038849976
0.017841447 -0.092962384 0.06530873 0.0006566525 0.019900566 0.025694313 -0.0054622237 -0.07777424
-0.08266432 0.028256448 0.04666289 0.031609673 0.052867793 -0.0019165024 0.03649931 0.07246706
-0.07450317 0.02699068 -0.030954693 0.035836264 0.07267805 0.0433656 0.06288811 -0.068499945
-0.07394614 0.10619688 -0.09125718 0.0026202481 0.020035556 -0.010501184 0.040622115 -0.056814115
0.0033971944 -0.10356325 0.015370457 0.014346018 0.012045344 -0.03895123 -0.021246824 -0.059363488
-0.025194114 -0.020219356 0.06665098 -0.08525432 -0.05123767 -0.046831626 -0.12412121 -0.040276792
0.0011615331 -0.031492654 -0.025958536 0.021663193 0.0035381506 -0.024145981 -0.013409694 0.05473651
-0.05668801 0.028200693 0.0057536475 0.00051173754 -0.066501215 -0.048321918 -0.030665932 -0.0010453853
-0.060831346 -0.056522533 0.06661822 -0.11862561 0.021292238 -0.113621935 0.052923154 -0.05665644
-0.016908357 0.07326812 0.06535069 -0.009241873 0.044357784 -0.13648207 0.040922944 0.115239255
-0.060271 0.053003937 0.023530614 0.081943505 0.04377325 0.010857836 0.018670375 0.05125188
-0.032512587 0.023977108 -0.04388665 -4.5117038e-05 -0.005811198 -0.07931037 0.01114688 0.045848377
0.08141608 0.05328072 0.026078405 -0.026377289 -0.105508804 -0.08778563 0.04938157 0.016518231
-0.08056316 -0.056105886 0.071815774 -0.027017029 -0.0525373 0.030283535 -0.038169168 0.11539818
-0.08508839 0.07737566 -0.027452966 0.04342239 -0.090451494 -0.037296966 0.12084581 -0.063121155
-0.10707599 0.017966466 0.0806077 -0.055010535 -0.08895639 0.06525615 0.10287664 -0.09176924
-0.105013296 -0.067991555 -0.0738137 0.06739456 -0.07675731 -0.04786142 0.005733488 -0.028692473
0.050756123 0.019290952 -0.081829 0.045722835 0.0363526 0.037735082 0.08650715 -0.042725302
0.027390217 -0.05470605 -0.038443007 -0.05046964 -0.04802552 -0.08359943 0.091249384 0.06432454

b2.conv1.bias f4 [18]
00000000: db99 a33d dbd6 403d 7c72 f9bc d8ce 253d
00000010: 4ed8 56bd 6018 263d 99dc a43d 0b19 e53c
00000020: b3b1 003d fb96 e53b 51e7 b5bd 09e8 48bd
00000030: 0623 46bc af75 1a3d bf70 43bd db9e 1cbd
00000040: 4106 34bd efa1 533c
0.0798833 0.047079902 -0.030450098 0.040480465 -0.052452378 0.04055059 0.08049888 0.027966043
0.031419467 0.0070065237 -0.08882011 -0.04904941 -0.012093311 0.037709888 -0.047714945 -0.038237434
-0.043951277 0.012917026

b2.bn1.weight f4 [18]
00000000: 17f8 7c3f 7e25 833f 5130 793f d6e9 7b3f
00000010: 2f8e 803f 4b86 793f b5f3 753f 1ffb 7e3f
00000020: abbc 803f b681 7d3f 7d28 853f 331b 843f
00000030: cea0 7a3f ec77 7f3f b8ba 803f 1cf1 793f
00000040: 2b8c 803f 8469 7b3f
0.98816055 1.0245817 0.9733935 0.9840368 1.0043391 0.9747054 0.9607499 0.9960193
1.0057577 0.9902605 1.0402981 1.03208 0.9790162 0.9979236 1.0056982 0.9763353
1.0042776 0.9820788

b2.bn1.bias f4 [18]
00000000: d2fe 24bd 02a3 143c f5cb 7fbc 057d 94bc
00000010: 31a4 373d 6d7d 90bb e476 efbb 9b2a b8bc
00000020: 7802 cfb9 14c8 14ba 6541 8a3d a096 c63d
00000030: 5833 4abb 7c47 d53c 7ad7 1b3c 70d5 debc
00000040: 8480 453c 6fb8 acbc
-0.040282078 0.009072067 -0.015612592 -0.01812602 0.04483432 -0.004409483 -0.007307874 -0.022481253
-0.00039483956 -0.0005675566 0.06750754 0.09696698 -0.0030853357 0.026035063 0.009511823 -0.027201384
0.012054566 -0.021084039

b2.bn1.running_mean f4 [18]
00000000: 0c33 42be f064 53be 1750 8ebe 3e87 47bf
00000010: 33d1 16bf f12c 1e3f 20ac 703e 6869 303e
00000020: 1ec3 cebe 4a73 c1bd b67c 5dbe 68ab d5be
00000030: ee13 ca3e eee6 a3be 0c55 7ebe 5352 11be
00000040: 915e 0cbf 03f3 01bf
-0.18964785 -0.20643973 -0.2779548 -0.7794074 -0.5891296 0.61787325 0.2350316 0.1722771
-0.40383238 -0.09445818 -0.21629605 -0.41732335 0.3946833 -0.32012123 -0.2483713 -0.1419156
-0.54831797 -0.5076143

b2.bn1.running_var f4 [18]
00000000: e52f 0a3f 85a3 5e3e 3141 783e 8ca5 d33e
00000010: 67ee 6f3e 78d7 bf3e dfda 7e3e 5ef0 6d3e
00000020: 00e4 9b3e e232 4c3e f7ee 8c3e e95e 853e
00000030: 8ab4 f13e 8bc5 813e 8d58 aa3e e7aa 883e
00000040: 4bad e23e ab92 ab3e
0.5397933 0.21742065 0.24243619 0.4133724 0.23430787 0.37469077 0.2488818 0.23236224
0.30447388 0.19941285 0.27526066 0.26048973 0.47208053 0.25346026 0.33270684 0.26692888
0.44272837 0.33510336

b2.conv2.weight f4 [18, 18, 3, 3]
00000000: c5fa 2e3d 6809 4c3d 0395 943d 4443 093d
00000010: 9e70 523d 9be1 903d 01ce 71bd de17 963c
00000020: d5b5 02bc 1b75 94bd ee70 443d 073f 1f3c
00000030: 20ac 993a 0535 f3bc 1c3d 74bd edf1 903d
00000040: f9f5 63bd 4225 d0bc c986 c5bd 2971 613d
00000050: 19f7 62bc 9f91 44bc 16c0 13bd 0196 8d3a
00000060: 284e 5d3d 02bc a1bc ed71 7d3d db5c ac3c
00000070: 5336 353d 9cb2 9abc c74d c03b 82d0 74bb
00000080: 3e19 693d d4c0 58bd d7a7 63bd 833f 02bc
00000090: 3b6a 963c 2581 e03c c92a 573b 5f62 db3c
000000a0: 6fab febc 26af cebd e038 9c3d c0de 6e3d
000000b0: 12e5 113d dcff a9bd 35b8 813d b976 42bd
000000c0: a5b6 30bd 7ae0 833d c2a9 10bd b751 4e3b
000000d0: cca3 4fbd d098 b6bc 0d7c b7bc 6848 0cb9
000000e0: 6255 e43b 9c29 7cbc e89c fbbc 5584 9ebc
000000f0: 9f01 24bc 0345 1ebd 3d16 803c 0974 b2ba
00000100: 309f bb3c be73 4bbd b7bf 643c b6bb a73d
00000110: ef2d 503d 7aff 693b 7aec c0bd cbe8 003d
00000120: 147c 3e3d 89b2 3ebd 047f 473c c4de 4d3c
00000130: 48ec fbbb 7ce3 0b3d 4d25 99bc 39cd 1f3d
00000140: e192 353d 966a 0abd 6d9e fabb 4190 90bc
00000150: 8735 2cbd 26de 0abd 6ddd a9bb 13ec 1dbd
00000160: e3f2 c0bc 53c4 80bb fcb3 123d f27b 183d
00000170: 271f 8f3d 968b 4cbd 33cf 29bc 39a1 2b3d
00000180: f75a 30bd 489c cbbd ba38 5fbd 3635 42bd
00000190: 0dd6 b23d 3371 8a3c 7710 7fbd 0e75 33bd
000001a0: e8e6 ba3d 833e 8fbc fd01 7cbd 28a2 1a3c
000001b0: c4cf 413d a69c 9ebd 46bd adbd 7d2a a93c
000001c0: cb70 acbd 3313 f83c 42cb afbc fc9a 1fbd
000001d0: 60ea c2bc 110b b0bd ff92 61bd b82d b93c
000001e0: 574a d73d 66a9 733c 2564 56bd b9d4 9e3d
000001f0: 1ff0 c33c 5a03 26bd ed84 983c 055c 9fbc
00000200: b4b4 c03c 093b c1bd ece5 493d 712c 58bd
00000210: f663 10bd fc21 4e3d c8ad 2bbd 9ef0 c7bd
00000220: 39b1 81bc 7aa8 4f3d 8d54 26bd a7e9 9fbd
00000230: e9e8 57bc b735 833d 3fb3 643c dd06 bfbd
00000240: 342a 023c fafd debc b70f 583d 4788 eb3c
00000250: bc54 553c 97f0 1f3c 6b2c a6bd d93b 103d
00000260: 2029 0dbd e2b6 643c c548 473c 5c2d 883d
00000270: c366 06be 7954 6c3d 4be5 a63d b754 75bd
00000280: ce37 b2bd a833 64bb a745 1a3c 4017 0abd
00000290: 4fed 0d3c c4a0 853d ab1d c8bc 1876 0ebd
000002a0: 584f 1a3d 3b41 9abb 4e4d e03c 6741 25bd
000002b0: 9484 893d 8c29 e83c 2cff 03bd 7018 a9bb
000002c0: 588f cd3b 13fd 353d ed9d 58bc 7145 523c
000002d0: b19d c539 820d 3fbc 9807 0abd 157b f93b
000002e0: 3994 323d dddc 163a 01a5 bcbb d7d0 8cbd
000002f0: da9e afbc c5b1 823d 3e75 903c a488 8cbd
00000300: 0dfb 5b3d 1940 5ebc 9d62 a43d 65aa 4dbd
00000310: 7b58 db3c 3ebc b9bc eceb 9e3c 6106 423d
00000320: 03a5 5abd cf6c 8c3d a38a 463d 6a8b 4cbd
00000330: 45df 573c da94 823c f4aa 623d 8963 1d3d
00000340: 0f94 dcbc ae64 bebd eedb d83b 4897 983c
00000350: ef82 5bbd f10f 073d 4c88 29bd b44e 23bd
00000360: 94bf f0bc e26e 5d3d 9f02 83bd 97c9 4c3d
00000370: 0fe7 33bd 02ce 553d 2fef d9bc 3f7d 27bc
00000380: 504e 8bbd 3665 a53d 4203 50bd 825a 93bd
00000390: 774d 913c 147c fd3c 1f8c 753d d571 8fbd
000003a0: 49f3 3f3c 3b8a ff3c b9e2 60bd 3c7c 6c3d
000003b0: 1313 2ebd 599f efbc e960 603c 6a6b 43bd
000003c0: a2b6 b0bd e76c a6bd 0e67 c2bc 91a5 a6bc
000003d0: c616 413d ba31 f6bc 5da2 c1ba dc48 9bb9
000003e0: 071a 87bd 4920 173d d824 d5bc f2a5 043d
000003f0: f875 8bbd e8ef 823d 92a2 a53c 853d 283d
0.04271962 0.049813658 0.07254984 0.033511415 0.05137693 0.07074281 -0.05903435 0.018321928
-0.007977922 -0.072488986 0.04795926 0.009719617 0.0011724271 -0.029688368 -0.05962859 0.07077394
-0.0556545 -0.02540839 -0.09644849 0.05503956 -0.013852858 -0.011997609 -0.03607186 0.0010802151
0.054029614 -0.01974297 0.061876226 0.02104037 0.04424126 -0.018883996 0.005868647 -0.0037355726
0.05690884 -0.05291827 -0.055579986 -0.007949713 0.018361202 0.02740533 0.0032831898 0.026780305
-0.031087605 -0.10092001 0.076280355 0.0583179 0.03561885 -0.083007544 0.06333963 -0.047476504
-0.043142933 0.064393 -0.035318144 0.0031481811 -0.05069332 -0.022289664 -0.02239802 -0.00013378414
0.0069681862 -0.01539078 -0.030714467 -0.01935021 -0.010010152 -0.038640033 0.015635604 -0.0013614903
0.022903055 -0.049670927 0.013961724 0.081901 0.050825056 0.0035705254 -0.09420104 0.03147201
0.04650505 -0.046556983 0.012176279 0.0125653185 -0.007688079 0.034152493 -0.018694544 0.039014075
0.044329528 -0.033793055 -0.0076482804 -0.01764691 -0.042043235 -0.033903264 -0.0051838667 -0.038555216
-0.023553317 -0.0039296537 0.035816178 0.03722758 0.06988364 -0.049937807 -0.010364342 0.0419018
-0.0430555 -0.09941918 -0.054497458 -0.047414027 0.08732233 0.01689968 -0.06227156 -0.043812804
0.09126073 -0.017485863 -0.061525334 0.009438075 0.04731728 -0.07744722 -0.08483367 0.020650143
-0.08419951 0.030282592 -0.021459226 -0.038966164 -0.0237934 -0.08595861 -0.055071827 0.022604808
0.10512226 0.014871931 -0.0523416 0.077554174 0.02391821 -0.04053054 0.018618071 -0.019453058
0.023523666 -0.09435088 0.049291536 -0.052776758 -0.03525158 0.05032538 -0.041913778 -0.09762691
-0.015831577 0.05069778 -0.040607978 -0.078082375 -0.013178089 0.0640673 0.013958751 -0.09327481
0.007944632 -0.027220715 0.05274936 0.028751506 0.0130206905 0.009761951 -0.08113941 0.035213325
-0.034463048 0.013959618 0.012163346 0.066492766 -0.13125138 0.057697747 0.08149203 -0.059895243
-0.0870205 -0.0034820829 0.0094160205 -0.03371358 0.008662536 0.06524804 -0.02442821 -0.03478059
0.037673324 -0.004707483 0.027380612 -0.040345576 0.067147404 0.028340124 -0.032225773 -0.005160384
0.0062731914 0.044430804 -0.013221246 0.012833939 0.00037692257 -0.011660935 -0.03369865 0.0076135495
0.043598387 0.0005754957 -0.0057569747 -0.068757705 -0.021438051 0.06381563 0.01763403 -0.06862
0.053706218 -0.013565087 0.080266215 -0.05021133 0.02677559 -0.022672769 0.019399606 0.047369365
-0.053380024 0.06856691 0.048472058 -0.049937643 0.01317579 0.015940119 0.055338815 0.038425002
-0.026926069 -0.09296547 0.0066180145 0.018626824 -0.053591665 0.032974187 -0.04138975 -0.03986998
-0.029388227 0.054060824 -0.06396984 0.04999694 -0.043921527 0.052198417 -0.02660331 -0.010222732
-0.06802046 0.08075945 -0.050784357 -0.07194997 0.017737133 0.030942954 0.059948083 -0.070041336
0.011715719 0.031193843 -0.05490372 0.057735667 -0.04249866 -0.029250788 0.01369498 -0.04770986
-0.086285844 -0.0812624 -0.02373078 -0.02034262 0.04714086 -0.030053008 -0.001477312 -0.00029618188
-0.06596761 0.036896024 -0.026018545 0.03238482 -0.0680961 0.06393415 0.020219121 0.041074295

b2.conv2.bias f4 [18]
00000000: 5b5a 0e3d 31c3 073d cab3 af3d 3251 3dbd
00000010: 1a69 40bd ddf3 c43c 7ed6 363d de9f c63c
00000020: 86f3 093d ec5a 033d 71a2 fabc cc5b d33c
00000030: d170 823d f64b 4bbc a4bd 983d 8e4d 16bd
00000040: 988e ba3d e8b9 a73b
0.03475414 0.033145133 0.08579214 -0.046220012 -0.046975233 0.024042064 0.04463815 0.024246152
0.033679508 0.03206913 -0.030595036 0.025800608 0.06369174 -0.012408247 0.07458046 -0.036695056
0.09109229 0.0051185973

b2.bn2.weight f4 [18]
00000000: 7557 883f f07b 783f 0e7e 773f fdca 813f
00000010: cb01 7c3f 819e 803f a5c0 763f ae61 753f
00000020: ddf0 7a3f 9858 7d3f 4e1d 7b3f 1766 7d3f
00000030: 2f1f 823f 9289 803f 243d 7f3f c2b1 7e3f
00000040: 0794 7c3f 54c2 7b3f
1.065169 0.97064114 0.9667672 1.0140072 0.98440236 1.0048372 0.963877 0.9585217
0.9802378 0.9896331 0.9809159 0.989839 1.0165766 1.0041983 0.9970267 0.99489987
0.9866337 0.98343396

b2.bn2.bias f4 [18]
00000000: 9327 7f3a a47d 46bc c331 1dbd 0311 4fbd
00000010: b99e 6abb 42af 7b3c ce1b b1bc 230a 12bd
00000020: cc50 5cbc a964 8abc 95d1 4ebc 3e71 a3bb
00000030: ce78 38bd 8dff 1ebd 3818 1d3c 42b4 dfbc
00000040: 46ea 32bd 9696 14bc
0.0009733375 -0.012114916 -0.038377535 -0.050553333 -0.0035800172 0.015361609 -0.021619704 -0.0356542
-0.013446998 -0.016893702 -0.01262321 -0.0049878648 -0.045037083 -0.03881793 0.009588294 -0.027307633
-0.04368045 -0.009069106

b2.bn2.running_mean f4 [18]
00000000: 2497 52be bd57 08bd 8824 21be d967 aebe
00000010: bd10 31bf 99cb c5be 31c3 0f3d f438 2bbe
00000020: f923 ad3d 5a43 31bf 192c 343d 6e05 12bf
00000030: 1687 d1bd e5a4 6b3e 660c 1b3e 16a4 e7bd
00000040: cc4e 153f b574 0bbf
-0.20565468 -0.0332868 -0.15736592 -0.34063604 -0.69166166 -0.38631895 0.03509826 -0.16720945
0.08454127 -0.69243395 0.043987367 -0.57039535 -0.10230844 0.23012121 0.15141448 -0.11310594
0.5832336 -0.54474956

b2.bn2.running_var f4 [18]
00000000: 9ad5 ed3d 6a77 153e 9861 df3d b6c3 3b3e
00000010: 5fba 243e a848 b03d bfc4 d53d b445 483e
00000020: af6c 423e 97a2 163e e344 c63d e695 e93d
00000030: 6356 d83d c8ec 2c3e c7de 003e 7491 193e
00000040: 5c30 ea3d 57ad 453e
0.11613007 0.14596334 0.109072864 0.18336377 0.1608672 0.08607608 0.10437917 0.1955784
0.18986772 0.1471046 0.09681108 0.11405544 0.10563352 0.168872 0.12584983 0.14996892
0.11435005 0.19304405

b3.conv1.weight f4 [36, 18, 3, 3]
00000000: 1e58 4c3d 8868 8f3c 885f 7abd 9c87 a73d
00000010: 025e 553d 58f6 84bd 04ce ff3b 2a0e 9b3d
00000020: fa12 6ebc 8df4 4e3d 243a 993d c534 2bbd
00000030: d169 21bd 637c 39bd dc3e 4a3d 0eee 37bd
00000040: 3ef7 66bb 7986 323d 2885 e03b efe4 4d3d
00000050: f2d5 babc eed0 c0bd 8a36 bfbd 5c5c 973d
00000060: 297b f6ba da08 fbbc 93f9 a4b9 69e2 70bd
00000070: f6a1 9b3d c7d2 113d c7c5 1f3c f783 e23d
00000080: 8e10 1cbd 2512 be3c cfc7 a33d d1b3 cfbc
00000090: 22e6 c03d 78d8 67bc 728c 1ebd 964b 773d
000000a0: 821e 643d ccb1 133d 61fd 3b3d 0680 b33c
000000b0: 7210 8f3d e204 caba fc6b 8fbd 3008 60bd
000000c0: 4621 94bc 0775 b8bd 0e68 35bd f1b1 8c3d
000000d0: e553 ef3c b59a 43bd 26e8 64bd 3953 ec3c
000000e0: 2676 92bd 2151 7cbd c2f8 423d 726c fbbc
000000f0: 711e 0cbd 8479 5b3d 6c92 7d3d 8b4f 71bb
00000100: e0ff 973b 79f9 9cbd 4988 5e3d 6ffb 103d
00000110: ca23 50bc f61e 27ba 2c99 91bd 55bf e73c
00000120: 587b af3c d098 3e3d f403 6cbd 70a6 43bc
00000130: 95d5 fd3c be45 cbbd 661e 2abd cb72 0e3d
00000140: d1e0 d9bd dcc7 893d 32b8 883d f3ad 6c3d
00000150: f9ff 093d 013e 20bd 1f00 17bd e0a7 b73d
00000160: f65a 3c3a d3e7 6a3c f7a0 723d d08d 67bd
00000170: 947e 94bd bee9 15bc dbe4 9bbd 69f2 653c
00000180: c39b a3bd 1be6 283d 5040 163d 24be 7e3d
00000190: 3db0 05bd 2a80 19bd ecc0 aa3d 04f5 29bd
000001a0: 285c c3bc 61e3 f13c f02b cbbb 523f 673d
000001b0: a61b c33c 5342 82bc a5ad f23b 4fd0 9739
000001c0: 4d72 203d a995 6d3d de60 11bb 6029 51bd
000001d0: bbf0 b6bd 593c 6a3d 8b38 fcbc 6cdd 4d3d
000001e0: 6427 7dbb e40a 773d b2d2 54bc fc06 d93b
000001f0: 9b3e 59bd 0f14 793d e682 8e3c 7625 d83c
00000200: c2de 2fbd ff4e f63c 4e30 6c3d 839e 933d
00000210: 7868 4a3d 41cd acbb ce7c 9cbd 1ecd 33bd
00000220: 78b0 3dbd 0214 df3c b5e9 863d 5cd9 003d
00000230: 83bd 7abd 035a 993b 96aa 2d3d eba9 a43c
00000240: a857 14bd 1a6b 0ebd c07e 0b3d fb86 cebc
00000250: a618 82bd 96b6 dc3c 8eb3 133d 3014 8bbc
00000260: 6825 3d3d 0c56 c73b 2fdc 1e3d a755 1abd
00000270: cb20 11bd e015 61bd 6d75 dbbd 8428 8c3c
00000280: 3e75 a3bc f332 45bc ecdf cbbb a650 81bc
00000290: 9ab3 0f3c 395b b7bd 2bf6 183b 2dae 933d
000002a0: 40fd 82bd f772 733c 51eb d53d becc 163d
000002b0: 7287 febc 9322 e83c de47 85bd 0f5b 05bd
000002c0: f86f 053c 4d0c a23c 8f03 26bd b1a9 e4bc
000002d0: 40e2 143c b12c 843b 6b63 413d 8025 f13c
000002e0: e789 9d3c b9c4 21bd 5892 3abd 1148 01bd
000002f0: d2b3 eb3c 0d53 dd3c cf80 8d3c de2c 143d
00000300: 77c2 9dbd b9b5 fd3c ebfa 92ba d303 ab3d
00000310: 4ef4 d8bc db8c cd3c 2fb0 4fbd a272 d53d
00000320: ae45 c8bc ce9b 013c 7146 5ebd 57bc 60bd
00000330: 0029 3b3d 0b9f cfbb 4ee5 9fbd d328 03bc
00000340: 4078 913d 9ead a3bd 83f2 4abc d045 c03d
00000350: 30f5 8abd 0709 723d fa71 87bd e232 a93d
00000360: d838 a2bc 4be9 0ebd 38da 163c 95ff 713d
00000370: dab1 babd 1fce 06bd f7d5 a1bb 043f 70bd
00000380: da8e 46bd 97a0 8d3d f650 aebc 5d0e bdbd
00000390: 105f 4e3d 66bf 9c3d 71fc 2c3d a684 79bd
000003a0: cc0d 44bd 1e9e c83d ed9d a5bd c993 b83c
000003b0: ac28 61bd 6cbf 90bd afb0 69bc 4ff3 0dbd
000003c0: 9f13 f2bc b97f 36bc d38d 2d3c db04 2b3d
000003d0: 1f54 153d 373a 87bc dc68 7e3d 4491 373d
000003e0: 9173 69bd 9fcb 153d e189 f03c 31ba 373d
000003f0: 7a21 7cbc 8ae3 7c3d 5b9a 913c d356 b3bc
0.049888723 0.0175059 -0.061126262 0.08180162 0.052091606 -0.06492299 0.0078065414 0.07571061
-0.014530892 0.05052619 0.074817926 -0.04179837 -0.039407555 -0.04528464 0.049376354 -0.04490476
-0.0035242583 0.043585274 0.006851811 0.050267156 -0.022807095 -0.0941485 -0.093365744 0.07390663
-0.0018805015 -0.03064387 -0.00031466465 -0.05880967 0.07599251 0.035601404 0.009751744 0.110603265
-0.038101725 0.023202011 0.07997095 -0.025354298 0.09418894 -0.014150731 -0.038708158 0.06037482
0.055693157 0.036058232 0.045895938 0.021911632 0.069855586 -0.0015412832 -0.07003018 -0.05469531
-0.018082272 -0.09006696 -0.044288687 0.06869877 0.029214809 -0.047754962 -0.055885457 0.028848277
-0.07151441 -0.061600808 0.047600515 -0.03069136 -0.03420872 0.053582683 0.061907217 -0.0036821093
0.004638657 -0.07664771 0.05432919 0.035396036 -0.012703845 -0.0006375158 -0.07109293 0.028289476
0.02142112 0.046532452 -0.057620957 -0.011941537 0.030985633 -0.09925412 -0.041532896 0.034777444
-0.106385835 0.06727573 0.066757575 0.05778308 0.03369138 -0.03912163 -0.03686535 0.089675665
0.0007185185 0.014337498 0.05923554 -0.056531727 -0.07250705 -0.009149967 -0.0761201 0.014034846
-0.079886936 0.04123507 0.036682427 0.06219305 -0.032638777 -0.037475742 0.08337578 -0.04149343
-0.023847654 0.029527368 -0.006200306 0.05645687 0.023816895 -0.015900766 0.007405954 0.00028956166
0.039171506 0.058004055 -0.0022182981 -0.05106485 -0.089326344 0.05718646 -0.03078868 0.050259992
-0.0038628215 0.06031312 -0.012989687 0.006623147 -0.05303822 0.060810145 0.017396402 0.02638505
-0.042937048 0.030066965 0.057663254 0.07207968 0.049416035 -0.0052734916 -0.07640992 -0.043896787
-0.04631087 0.02723122 0.06587545 0.03145729 -0.06121589 0.0046799197 0.04239901 0.020100554
-0.036216408 -0.03477011 0.034056425 -0.025210848 -0.063523576 0.026942533 0.03605991 -0.0169774
0.04617825 0.0060832556 0.038784202 -0.03767934 -0.035431664 -0.054952502 -0.107157566 0.017109163
-0.019953366 -0.012036073 -0.006221762 -0.015785526 0.008770848 -0.08952946 0.0023340087 0.07210956
-0.0639596 0.014858953 0.10445274 0.03681635 -0.031070445 0.028336799 -0.06507848 -0.032557543
0.008144371 0.019781256 -0.040530737 -0.027912946 0.009087145 0.004033648 0.047213953 0.029436827
0.019230796 -0.03949425 -0.04554972 -0.03156287 0.028772268 0.02701714 0.017273335 0.0361756
-0.07703107 0.030970441 -0.0011213695 0.08350339 -0.026483681 0.02509158 -0.05070513 0.10422255
-0.024447288 0.007910682 -0.054266397 -0.054867115 0.045693398 -0.006336098 -0.07807408 -0.008005339
0.07103014 -0.07992099 -0.012386921 0.09388316 -0.06785047 0.05909064 -0.06613536 0.08261658
-0.019802496 -0.034890454 0.009207301 0.059081633 -0.09115954 -0.032911416 -0.0049388367 -0.058653846
-0.048476078 0.06915396 -0.02127884 -0.09231255 0.050383627 0.07653694 0.042232934 -0.06091752
-0.04786472 0.097957835 -0.080867626 0.022531407 -0.05497043 -0.07067761 -0.014263316 -0.034655865
-0.029550372 -0.01113885 0.010592896 0.041752677 0.036457177 -0.016507251 0.06211172 0.04481627
-0.05699498 0.03657114 0.02936262 0.0448553 -0.015388841 0.061740436 0.017773798 -0.021891987

b3.conv1.bias f4 [36]
00000000: b5fd 323d b5f3 3fbd 3c19 d6bc 4a03 253d
00000010: 9f0b e3bc 4eae e2bc 554f bcbc 6236 57bd
00000020: a462 853d 4ad7 163d e761 3a3c 7bae 8ebd
00000030: e351 a6bd a637 6e3d 566d e739 9509 2e3d
00000040: 87a4 38bd c1ba 893d f55d 5bbd ae18 853d
00000050: 4afb 55bd ef7a a7bd 7166 76bd b4c7 923d
00000060: bf8d ea3b 17f8 a83c 6a24 a9bd e7a6 2d3c
00000070: 3ed9 a1bc d8dd 4ebd 74b2 8ebd b2ea cbbc
00000080: fc32 f6bb bcd7 a1bd 89c5 af3d d548 e6bb
0.043698985 -0.046863277 -0.02613508 0.04028634 -0.027715502 -0.027671006 -0.022987047 -0.052542098
0.06512955 0.03682641 0.011375881 -0.06966873 -0.081210874 0.05815854 0.00044141215 0.042489607
-0.04507878 0.067250736 -0.0535564 0.06498848 -0.0522416 -0.081777446 -0.06015629 0.071669966
0.0071580107 0.020626111 -0.082588986 0.010598875 -0.01975691 -0.050504535 -0.06967631 -0.024892185
-0.007513402 -0.07902476 0.08582599 -0.007027725

b3.bn1.weight f4 [36]
00000000: 569c 7d3f a5f6 813f c99a 803f 90a8 7b3f
00000010: dcc2 823f 0b20 7c3f c834 793f b418 803f
00000020: 6a64 7d3f 8b3d 833f 5f05 7e3f 924b 7d3f
00000030: 8fff 7a3f 8bca 773f 547a 7f3f aa45 7b3f
00000040: ae0f 823f 75a4 793f 4f47 803f e0f7 7c3f
00000050: 09e2 7c3f bb1c 803f fc31 793f 0de1 843f
00000060: 6443 7d3f 425f 7d3f 3c0e 7d3f ba5a 803f
00000070: ae3a 813f 4236 7f3f 70b1 803f e63e 813f
00000080: cb97 803f 4f2a 793f 5d96 7b3f ae09 783f
0.99066675 1.0153395 1.0047237 0.9830408 1.0215716 0.98486394 0.9734616 1.0007539
0.98981345 1.0253156 0.99226946 0.98943436 0.980462 0.9679343 0.9979603 0.98153174
1.0161035 0.97516567 1.0021762 0.9881573 0.987824 1.0008768 0.97341895 1.038118
0.98930955 0.98973477 0.98849845 1.0027688 1.0096033 0.99692166 1.005415 1.009732
1.0046324 0.9733018 0.9827631 0.9688977

b3.bn1.bias f4 [36]
00000000: f48c a4bc 4740 bb3c 5578 9d3c 2eb1 98bc
00000010: ee72 c1bb c6e7 a83b 0f11 37bc c57e 2fbd
00000020: cdcc bfbc 424d 43bd c32c 9e3c c49b c8bc
00000030: a095 a6bc 1e9d 1bbd 1d56 68bc c325 a3bc
00000040: c225 b93b c7b9 8ebc 97cc 67bd ebb3 e1bc
00000050: 2079 34bc a4b0 1fbd f0a8 76bc 55ac 0938
00000060: 44fc f03c 0772 07bd d2a5 02bd 4aec 97bc
00000070: 12cc c0bc 0cec 43bc 2504 48bd 4aff 14bd
00000080: baa1 b6bc 863a 9ebc 0cfd 2ebc 6840 6abc
-0.020086743 0.022857798 0.019222418 -0.018639173 -0.0059035933 0.0051545827 -0.011173501 -0.042845506
-0.023413086 -0.0476811 0.019308453 -0.024488337 -0.020335019 -0.037991636 -0.014180687 -0.019915467
0.005650253 -0.01742257 -0.056591596 -0.027551612 -0.011015207 -0.038986817 -0.015054926 3.2823842e-05
0.029417165 -0.03306773 -0.03189642 -0.018545289 -0.023534808 -0.011958133 -0.048832078 -0.036376275
-0.022293914 -0.019315016 -0.010680448 -0.014297582

b3.bn1.running_mean f4 [36]
00000000: 86a2 483e 6d76 cbbd 7067 91be aa65 ecbd
00000010: 369e 16be 0537 55bf f874 1f3f 49c9 2c3f
00000020: 46db 633f bda6 d73e d9bb 3bbf 93fb 33bf
00000030: e72b a1bf cb00 8a3f a22a 8e3c 0cab e4bd
00000040: c507 1c3f 2482 bdbe a730 763f f966 db3d
00000050: 3c50 8b3e ea71 b83d 1eb1 8fbe ca4c 95bc
00000060: c6fc a5be 242d 223f 232c 1f3f dfd3 3c3f
00000070: 08af 06bc da4e 593e 9122 2e3f aed9 313e
00000080: 9769 ddbe c035 5d3d 992f 26bf 9897 513e
0.19593248 -0.09934697 -0.2839923 -0.115428284 -0.1470879 -0.8328708 0.62287855 0.67494637
0.8900646 0.421194 -0.7333351 -0.70305747 -1.2591523 1.0781492 0.017354313 -0.11165437
0.60949355 -0.37013352 0.9616799 0.10713 0.2720965 0.090061024 -0.28064817 -0.018225092
-0.32419413 0.6335013 0.6217672 0.7376079 -0.008220442 0.21221486 0.68021494 0.17368194
-0.4324462 0.054006338 -0.6491638 0.20467985

b3.bn1.running_var f4 [36]
00000000: b0c0 3d3e a68b 4f3e cf0d 173e a433 5e3e
00000010: de58 063e b0b5 663e cc7e 403e 6b79 863e
00000020: 4d9f 5f3e 1034 1a3e cc6a d23e 458c b43e
00000030: 5208 6b3e d5e1 883e 70d8 443e da7f 4b3e
00000040: d327 203e bb8b 7a3e fccf 853e 464e 9e3e
00000050: b913 433e e14e 543e e511 593e a338 5d3e
00000060: a8db 593e d4a2 ac3e ae16 503e ac1a 1b3e
00000070: 23a5 f93d 2b3f 093e b916 8f3e 47e9 853e
00000080: 91dd 223e 574a 253e eb50 443e a2ec 733e
0.18530536 0.20268115 0.14751361 0.21699387 0.13119838 0.22530246 0.18798369 0.2626451
0.21838112 0.15058923 0.41097105 0.35263267 0.22952393 0.26734796 0.1922319 0.1987299
0.15640192 0.24467365 0.26135242 0.30919093 0.19050492 0.20733215 0.21198232 0.21603636
0.21275198 0.33717978 0.20321152 0.15146893 0.121897005 0.13403003 0.27947024 0.2615454
0.15904833 0.1614164 0.19171493 0.23820737

b3.conv2.weight f4 [36, 36, 3, 3]
00000000: 0466 153c 1367 bc3c 5918 103a 77aa cabb
00000010: 09c3 9f3c 0f7b e33c bb01 253d 1af8 563c
00000020: d1a7 bbba d85d 63bc 90b8 8dbc c24d 403c
00000030: 8945 253d bfc8 a73b 097c 80bd bee0 503b
00000040: e3e7 c4bc 38c3 79bd e89b 933c 3be9 22bd
00000050: 5baa 323d fba4 0f3d 3aff 8bbd 9698 f63c
00000060: 8659 45bd 1462 54bd 60f2 debc 45d4 f9bc
00000070: b42a 063d 4189 83bc 006f 14bc 0a3f 0f3b
00000080: 1258 bebc 4bed b1bb 423f 2cbd b170 1a3d
00000090: dfb3 6d3d 8820 673d a2f1 4a3c 32be 8bbc
000000a0: b322 563d 0697 b23c 5f83 3e3c 664d b73c
000000b0: 022b a6bc 01bc 62bd 90bc 323d 7f7f 0bbc
000000c0: be1a 03bc cc1d 14bd 3c2e c1bc 2894 04bd
000000d0: 1c58 5c3b c4be 143d e60c 96bc a2c9 233d
000000e0: c475 42bd 9349 c6bc 8782 08bd d22b 823d
000000f0: 8e2d 39bd bc18 7ebc 3721 2bbd 8776 743c
00000100: 5d96 a3bc 4b33 98bd a375 9b3c f4f7 c5bb
00000110: 1aef f13b e51f 003c e318 9d3c 0eca 8739
00000120: 6d71 8a3b ae43 9dbc c264 0bbd 13a0 0fbc
00000130: a5ff 303d fe42 36bd 2655 0dbd 70f2 8a3c
00000140: 1be6 a03c 229f 973c 1232 43bd c476 f5bc
00000150: 9093 2e3d 8d78 f53c e396 dd3c 5458 83bd
00000160: e225 f0bc 4564 623d 8793 ca3b 5eed 81bc
00000170: a405 0fbd e444 9f3c 4938 7fbc dadd 143c
00000180: 89cc 82bc 5def 33bb 6fc5 64bc 421c 07bd
00000190: 280f 1a3d b19b 9c3d f6fc fa3c 3d20 cc3c
000001a0: 6ab2 debc 86a5 ddbb 7943 383d 1359 72bd
000001b0: fbda 81bc 60a3 f83c ecd8 43bb 303e 433d
000001c0: 220a 8e3c f59b 30bd edc3 a1bc 94fa 07bd
000001d0: f812 d2bc a9fd 643c 316c 8e3a dce1 fabc
000001e0: ac68 f338 faca 2fbd 2462 ae3c 11ec c3bb
000001f0: 137c 2d3d faa2 633b 162c 2e3d 97b3 7a3d
00000200: 74b1 7ebc e8cd cc3c 12ce d0bb 74e4 6a3d
00000210: 9530 1cbd 46ac 86bd fa44 8c3d 61a7 ac3c
00000220: 62f0 5f3c 1e13 b03c f83c 88bd c3cf b93c
00000230: 9ac1 183d 7cd4 de3b 71df 3c3d 5bc4 cabc
00000240: 7122 f23c 08c3 0bbd 7a94 c83c 6519 c83c
00000250: 7fd6 023b 22b2 593d d514 72bd 045c 3f3c
00000260: 6fbf 0d3d be1b 673c b0e3 313d fab3 423d
00000270: b541 3ebd 7a52 653c 5d87 ba3c 4f73 593d
00000280: 4605 33bd ecdf e53c eccc 80bc 34e6 27bd
00000290: bff5 edbc 0dcc 92bb 14cc 0c3d 85c1 9cbc
000002a0: c47f dbbc a6cf 7fbb 9b26 8d3c a46b 413d
000002b0: fea6 2c3d 19b6 ea39 3964 22bb 0dfc ce3a
000002c0: 52ef 113d 5776 80bc ed24 ba3b ee5a 8ebb
000002d0: 4662 ae3c 286b 41bd df89 183c 0475 2bbd
000002e0: a06e d2bc 79f4 383d e5d8 0cbd 4d09 0b3d
000002f0: bf89 6e3b 60d2 e03b 8f11 133b 8115 d0bc
00000300: 51b7 77bc f889 433d e62e 28bd abc8 223d
00000310: 4ed8 3dbc a58c 6f3d 99e3 bcbc 0161 1b3d
00000320: a4ff e3bc 41e6 273d fcb5 31bc c963 2bbd
00000330: 3557 9ebd 84b3 cfbb ca22 ea3c 18cd 42bd
00000340: 7523 1f3c 419b cc3d a033 dd3c 78d4 27bd
00000350: ab35 213c d9e5 cc3c 90b7 efbc 7f34 11bd
00000360: ff45 d73c 1ce3 0f3d 7dd4 ccbb 2671 ac3c
00000370: dda6 e03c 5751 efbc 035f 2abd 1342 363d
00000380: 86a7 acbc 0663 03bd c1f1 143d e356 703d
00000390: 2462 f0bc c785 e83b 8dc1 2a3d b674 423d
000003a0: 3d3c 393d 37ea 24bc cc03 15bd ac33 7bbd
000003b0: 05e4 6e3c 1af0 b73c 82f2 13bd 7d10 74bc
000003c0: 5cf4 ee3c 9967 a9ba d2dd 393d 27ea 11bd
000003d0: 60e1 60bc e7e3 0abd 294c 823c a12d 2b3d
000003e0: 8d0f 8b3d 0003 3a3d e554 4abc ce74 7a3d
000003f0: 75db 783c c9c1 d6bc 7469 e13c d95a 473c
0.009118561 0.022998368 0.0005496792 -0.006184872 0.01950218 0.02776864 0.040284853 0.013120675
-0.0014316981 -0.013877355 -0.01729992 0.011737289 0.040349517 0.0051203663 -0.06273658 0.0031872238
-0.024036353 -0.06097719 0.018018678 -0.039773207 0.043619495 0.035069447 -0.0683579 0.030102056
-0.04818108 -0.051851347 -0.027215183 -0.030496726 0.03275557 -0.016056659 -0.009059668 0.0021857643
-0.023235355 -0.005429899 -0.042052515 0.037705127 0.058032867 0.05642751 0.012386711 -0.017058466
0.052279186 0.02180053 0.011628001 0.022375774 -0.02028418 -0.055355076 0.04363686 -0.008514284
-0.008001981 -0.03616123 -0.023581617 -0.032367855 0.0033621853 0.03631474 -0.018316697 0.039987214
-0.04747559 -0.024205005 -0.033327606 0.06356014 -0.04520946 -0.015508827 -0.041779723 0.014920837
-0.01996916 -0.07431658 0.018976992 -0.006041521 0.0073832395 0.007820104 0.019176906 0.0002589975
0.004224947 -0.019197311 -0.034031637 -0.008766192 0.04321255 -0.044497482 -0.034505032 0.016961306
0.019640973 0.018508498 -0.047655173 -0.029963858 0.042621195 0.02996471 0.027049487 -0.06413332
-0.029314939 0.055271406 0.0061821374 -0.015860256 -0.03491749 0.01944203 -0.015577384 0.009086097
-0.01596667 -0.0027455904 -0.013963087 -0.032985933 0.03761211 0.07646883 0.0306382 0.024917716
-0.027184684 -0.0067641167 0.044986222 -0.05916698 -0.015851488 0.03035134 -0.0029883934 0.04766673
0.017338816 -0.043117482 -0.019746745 -0.033197954 -0.02564381 0.013976493 0.0010865984 -0.030625276
0.000116066396 -0.042918183 0.021287031 -0.005979069 0.042354655 0.0034734593 0.042522512 0.061206426
-0.015545238 0.025000528 -0.0063722217 0.057346776 -0.03813227 -0.06575827 0.06849094 0.021075906
0.013668152 0.02149349 -0.06652254 0.022682076 0.037294008 0.0068002325 0.046111528 -0.024751833
0.029557439 -0.034121543 0.024484862 0.024426172 0.0019964275 0.053148396 -0.0591019 0.011679653
0.034606393 0.014105735 0.04343003 0.04753492 -0.04644938 0.013996715 0.022769624 0.053088482
-0.0437062 0.028060876 -0.015722714 -0.040991023 -0.029047845 -0.004479891 0.03437431 -0.019135246
-0.026794322 -0.003903368 0.017230323 0.047221795 0.042151444 0.0004476763 -0.0024778976 0.001579167
0.035628624 -0.015681429 0.0056806714 -0.0043443358 0.021287095 -0.047221333 0.009310215 -0.04185964
-0.025687516 0.045155022 -0.034386534 0.033944417 0.003639802 0.006861016 0.0022440886 -0.025400879
-0.01511939 0.047739 -0.04106035 0.039742153 -0.011587216 0.05848374 -0.023057746 0.037934307
-0.02783186 0.04099107 -0.010846611 -0.04184321 -0.07731477 -0.0063385386 0.028581042 -0.047558874
0.009713043 0.0999055 0.027002156 -0.04097411 0.009839456 0.025011944 -0.029262334 -0.035450455
0.026278494 0.035128698 -0.0062509165 0.021050047 0.027423317 -0.02921359 -0.041594516 0.044496607
-0.021075975 -0.032076858 0.036363367 0.05867661 -0.029343672 0.0070960256 0.04168849 0.047474585
0.045223463 -0.010065607 -0.036380574 -0.061328575 0.014580731 0.022453357 -0.036119945 -0.014896509
0.029169254 -0.0012924551 0.04537756 -0.035623696 -0.013725609 -0.03390875 0.015905457 0.041791562
0.067900755 0.045413017 -0.012349342 0.06114655 0.015189041 -0.02621545 0.027516104 0.012167656
